{
  "nodes": [
    {
      "op": "null", 
      "name": "data", 
      "inputs": []
    }, 
    {
      "op": "null", 
      "name": "ssd0_mobilenet0_conv0_weight", 
      "attrs": {
        "__dtype__": "0", 
        "__lr_mult__": "1.0", 
        "__shape__": "(32, 3, 3, 3)", 
        "__storage_type__": "0", 
        "__wd_mult__": "1.0"
      }, 
      "inputs": []
    }, 
    {
      "op": "Convolution", 
      "name": "ssd0_mobilenet0_conv0_fwd", 
      "attrs": {
        "dilate": "(1, 1)", 
        "kernel": "(3, 3)", 
        "layout": "NCHW", 
        "no_bias": "True", 
        "num_filter": "32", 
        "num_group": "1", 
        "pad": "(1, 1)", 
        "stride": "(2, 2)"
      }, 
      "inputs": [[0, 0, 0], [1, 0, 0]]
    }, 
    {
      "op": "null", 
      "name": "ssd0_mobilenet0_batchnorm0_gamma", 
      "attrs": {
        "__dtype__": "0", 
        "__init__": "ones", 
        "__lr_mult__": "1.0", 
        "__shape__": "(32,)", 
        "__storage_type__": "0", 
        "__wd_mult__": "1.0"
      }, 
      "inputs": []
    }, 
    {
      "op": "null", 
      "name": "ssd0_mobilenet0_batchnorm0_beta", 
      "attrs": {
        "__dtype__": "0", 
        "__init__": "zeros", 
        "__lr_mult__": "1.0", 
        "__shape__": "(32,)", 
        "__storage_type__": "0", 
        "__wd_mult__": "1.0"
      }, 
      "inputs": []
    }, 
    {
      "op": "null", 
      "name": "ssd0_mobilenet0_batchnorm0_running_mean", 
      "attrs": {
        "__dtype__": "0", 
        "__init__": "zeros", 
        "__lr_mult__": "1.0", 
        "__shape__": "(32,)", 
        "__storage_type__": "0", 
        "__wd_mult__": "1.0"
      }, 
      "inputs": []
    }, 
    {
      "op": "null", 
      "name": "ssd0_mobilenet0_batchnorm0_running_var", 
      "attrs": {
        "__dtype__": "0", 
        "__init__": "ones", 
        "__lr_mult__": "1.0", 
        "__shape__": "(32,)", 
        "__storage_type__": "0", 
        "__wd_mult__": "1.0"
      }, 
      "inputs": []
    }, 
    {
      "op": "BatchNorm", 
      "name": "ssd0_mobilenet0_batchnorm0_fwd", 
      "attrs": {
        "axis": "1", 
        "eps": "1e-05", 
        "fix_gamma": "False", 
        "momentum": "0.9", 
        "use_global_stats": "False"
      }, 
      "inputs": [[2, 0, 0], [3, 0, 0], [4, 0, 0], [5, 0, 1], [6, 0, 1]]
    }, 
    {
      "op": "Activation", 
      "name": "ssd0_mobilenet0_relu0_fwd", 
      "attrs": {"act_type": "relu"}, 
      "inputs": [[7, 0, 0]]
    }, 
    {
      "op": "null", 
      "name": "ssd0_mobilenet0_conv1_weight", 
      "attrs": {
        "__dtype__": "0", 
        "__lr_mult__": "1.0", 
        "__shape__": "(32, 1, 3, 3)", 
        "__storage_type__": "0", 
        "__wd_mult__": "1.0"
      }, 
      "inputs": []
    }, 
    {
      "op": "Convolution", 
      "name": "ssd0_mobilenet0_conv1_fwd", 
      "attrs": {
        "dilate": "(1, 1)", 
        "kernel": "(3, 3)", 
        "layout": "NCHW", 
        "no_bias": "True", 
        "num_filter": "32", 
        "num_group": "32", 
        "pad": "(1, 1)", 
        "stride": "(1, 1)"
      }, 
      "inputs": [[8, 0, 0], [9, 0, 0]]
    }, 
    {
      "op": "null", 
      "name": "ssd0_mobilenet0_batchnorm1_gamma", 
      "attrs": {
        "__dtype__": "0", 
        "__init__": "ones", 
        "__lr_mult__": "1.0", 
        "__shape__": "(32,)", 
        "__storage_type__": "0", 
        "__wd_mult__": "1.0"
      }, 
      "inputs": []
    }, 
    {
      "op": "null", 
      "name": "ssd0_mobilenet0_batchnorm1_beta", 
      "attrs": {
        "__dtype__": "0", 
        "__init__": "zeros", 
        "__lr_mult__": "1.0", 
        "__shape__": "(32,)", 
        "__storage_type__": "0", 
        "__wd_mult__": "1.0"
      }, 
      "inputs": []
    }, 
    {
      "op": "null", 
      "name": "ssd0_mobilenet0_batchnorm1_running_mean", 
      "attrs": {
        "__dtype__": "0", 
        "__init__": "zeros", 
        "__lr_mult__": "1.0", 
        "__shape__": "(32,)", 
        "__storage_type__": "0", 
        "__wd_mult__": "1.0"
      }, 
      "inputs": []
    }, 
    {
      "op": "null", 
      "name": "ssd0_mobilenet0_batchnorm1_running_var", 
      "attrs": {
        "__dtype__": "0", 
        "__init__": "ones", 
        "__lr_mult__": "1.0", 
        "__shape__": "(32,)", 
        "__storage_type__": "0", 
        "__wd_mult__": "1.0"
      }, 
      "inputs": []
    }, 
    {
      "op": "BatchNorm", 
      "name": "ssd0_mobilenet0_batchnorm1_fwd", 
      "attrs": {
        "axis": "1", 
        "eps": "1e-05", 
        "fix_gamma": "False", 
        "momentum": "0.9", 
        "use_global_stats": "False"
      }, 
      "inputs": [[10, 0, 0], [11, 0, 0], [12, 0, 0], [13, 0, 1], [14, 0, 1]]
    }, 
    {
      "op": "Activation", 
      "name": "ssd0_mobilenet0_relu1_fwd", 
      "attrs": {"act_type": "relu"}, 
      "inputs": [[15, 0, 0]]
    }, 
    {
      "op": "null", 
      "name": "ssd0_mobilenet0_conv2_weight", 
      "attrs": {
        "__dtype__": "0", 
        "__lr_mult__": "1.0", 
        "__shape__": "(64, 32, 1, 1)", 
        "__storage_type__": "0", 
        "__wd_mult__": "1.0"
      }, 
      "inputs": []
    }, 
    {
      "op": "Convolution", 
      "name": "ssd0_mobilenet0_conv2_fwd", 
      "attrs": {
        "dilate": "(1, 1)", 
        "kernel": "(1, 1)", 
        "layout": "NCHW", 
        "no_bias": "True", 
        "num_filter": "64", 
        "num_group": "1", 
        "pad": "(0, 0)", 
        "stride": "(1, 1)"
      }, 
      "inputs": [[16, 0, 0], [17, 0, 0]]
    }, 
    {
      "op": "null", 
      "name": "ssd0_mobilenet0_batchnorm2_gamma", 
      "attrs": {
        "__dtype__": "0", 
        "__init__": "ones", 
        "__lr_mult__": "1.0", 
        "__shape__": "(64,)", 
        "__storage_type__": "0", 
        "__wd_mult__": "1.0"
      }, 
      "inputs": []
    }, 
    {
      "op": "null", 
      "name": "ssd0_mobilenet0_batchnorm2_beta", 
      "attrs": {
        "__dtype__": "0", 
        "__init__": "zeros", 
        "__lr_mult__": "1.0", 
        "__shape__": "(64,)", 
        "__storage_type__": "0", 
        "__wd_mult__": "1.0"
      }, 
      "inputs": []
    }, 
    {
      "op": "null", 
      "name": "ssd0_mobilenet0_batchnorm2_running_mean", 
      "attrs": {
        "__dtype__": "0", 
        "__init__": "zeros", 
        "__lr_mult__": "1.0", 
        "__shape__": "(64,)", 
        "__storage_type__": "0", 
        "__wd_mult__": "1.0"
      }, 
      "inputs": []
    }, 
    {
      "op": "null", 
      "name": "ssd0_mobilenet0_batchnorm2_running_var", 
      "attrs": {
        "__dtype__": "0", 
        "__init__": "ones", 
        "__lr_mult__": "1.0", 
        "__shape__": "(64,)", 
        "__storage_type__": "0", 
        "__wd_mult__": "1.0"
      }, 
      "inputs": []
    }, 
    {
      "op": "BatchNorm", 
      "name": "ssd0_mobilenet0_batchnorm2_fwd", 
      "attrs": {
        "axis": "1", 
        "eps": "1e-05", 
        "fix_gamma": "False", 
        "momentum": "0.9", 
        "use_global_stats": "False"
      }, 
      "inputs": [[18, 0, 0], [19, 0, 0], [20, 0, 0], [21, 0, 1], [22, 0, 1]]
    }, 
    {
      "op": "Activation", 
      "name": "ssd0_mobilenet0_relu2_fwd", 
      "attrs": {"act_type": "relu"}, 
      "inputs": [[23, 0, 0]]
    }, 
    {
      "op": "null", 
      "name": "ssd0_mobilenet0_conv3_weight", 
      "attrs": {
        "__dtype__": "0", 
        "__lr_mult__": "1.0", 
        "__shape__": "(64, 1, 3, 3)", 
        "__storage_type__": "0", 
        "__wd_mult__": "1.0"
      }, 
      "inputs": []
    }, 
    {
      "op": "Convolution", 
      "name": "ssd0_mobilenet0_conv3_fwd", 
      "attrs": {
        "dilate": "(1, 1)", 
        "kernel": "(3, 3)", 
        "layout": "NCHW", 
        "no_bias": "True", 
        "num_filter": "64", 
        "num_group": "64", 
        "pad": "(1, 1)", 
        "stride": "(2, 2)"
      }, 
      "inputs": [[24, 0, 0], [25, 0, 0]]
    }, 
    {
      "op": "null", 
      "name": "ssd0_mobilenet0_batchnorm3_gamma", 
      "attrs": {
        "__dtype__": "0", 
        "__init__": "ones", 
        "__lr_mult__": "1.0", 
        "__shape__": "(64,)", 
        "__storage_type__": "0", 
        "__wd_mult__": "1.0"
      }, 
      "inputs": []
    }, 
    {
      "op": "null", 
      "name": "ssd0_mobilenet0_batchnorm3_beta", 
      "attrs": {
        "__dtype__": "0", 
        "__init__": "zeros", 
        "__lr_mult__": "1.0", 
        "__shape__": "(64,)", 
        "__storage_type__": "0", 
        "__wd_mult__": "1.0"
      }, 
      "inputs": []
    }, 
    {
      "op": "null", 
      "name": "ssd0_mobilenet0_batchnorm3_running_mean", 
      "attrs": {
        "__dtype__": "0", 
        "__init__": "zeros", 
        "__lr_mult__": "1.0", 
        "__shape__": "(64,)", 
        "__storage_type__": "0", 
        "__wd_mult__": "1.0"
      }, 
      "inputs": []
    }, 
    {
      "op": "null", 
      "name": "ssd0_mobilenet0_batchnorm3_running_var", 
      "attrs": {
        "__dtype__": "0", 
        "__init__": "ones", 
        "__lr_mult__": "1.0", 
        "__shape__": "(64,)", 
        "__storage_type__": "0", 
        "__wd_mult__": "1.0"
      }, 
      "inputs": []
    }, 
    {
      "op": "BatchNorm", 
      "name": "ssd0_mobilenet0_batchnorm3_fwd", 
      "attrs": {
        "axis": "1", 
        "eps": "1e-05", 
        "fix_gamma": "False", 
        "momentum": "0.9", 
        "use_global_stats": "False"
      }, 
      "inputs": [[26, 0, 0], [27, 0, 0], [28, 0, 0], [29, 0, 1], [30, 0, 1]]
    }, 
    {
      "op": "Activation", 
      "name": "ssd0_mobilenet0_relu3_fwd", 
      "attrs": {"act_type": "relu"}, 
      "inputs": [[31, 0, 0]]
    }, 
    {
      "op": "null", 
      "name": "ssd0_mobilenet0_conv4_weight", 
      "attrs": {
        "__dtype__": "0", 
        "__lr_mult__": "1.0", 
        "__shape__": "(128, 64, 1, 1)", 
        "__storage_type__": "0", 
        "__wd_mult__": "1.0"
      }, 
      "inputs": []
    }, 
    {
      "op": "Convolution", 
      "name": "ssd0_mobilenet0_conv4_fwd", 
      "attrs": {
        "dilate": "(1, 1)", 
        "kernel": "(1, 1)", 
        "layout": "NCHW", 
        "no_bias": "True", 
        "num_filter": "128", 
        "num_group": "1", 
        "pad": "(0, 0)", 
        "stride": "(1, 1)"
      }, 
      "inputs": [[32, 0, 0], [33, 0, 0]]
    }, 
    {
      "op": "null", 
      "name": "ssd0_mobilenet0_batchnorm4_gamma", 
      "attrs": {
        "__dtype__": "0", 
        "__init__": "ones", 
        "__lr_mult__": "1.0", 
        "__shape__": "(128,)", 
        "__storage_type__": "0", 
        "__wd_mult__": "1.0"
      }, 
      "inputs": []
    }, 
    {
      "op": "null", 
      "name": "ssd0_mobilenet0_batchnorm4_beta", 
      "attrs": {
        "__dtype__": "0", 
        "__init__": "zeros", 
        "__lr_mult__": "1.0", 
        "__shape__": "(128,)", 
        "__storage_type__": "0", 
        "__wd_mult__": "1.0"
      }, 
      "inputs": []
    }, 
    {
      "op": "null", 
      "name": "ssd0_mobilenet0_batchnorm4_running_mean", 
      "attrs": {
        "__dtype__": "0", 
        "__init__": "zeros", 
        "__lr_mult__": "1.0", 
        "__shape__": "(128,)", 
        "__storage_type__": "0", 
        "__wd_mult__": "1.0"
      }, 
      "inputs": []
    }, 
    {
      "op": "null", 
      "name": "ssd0_mobilenet0_batchnorm4_running_var", 
      "attrs": {
        "__dtype__": "0", 
        "__init__": "ones", 
        "__lr_mult__": "1.0", 
        "__shape__": "(128,)", 
        "__storage_type__": "0", 
        "__wd_mult__": "1.0"
      }, 
      "inputs": []
    }, 
    {
      "op": "BatchNorm", 
      "name": "ssd0_mobilenet0_batchnorm4_fwd", 
      "attrs": {
        "axis": "1", 
        "eps": "1e-05", 
        "fix_gamma": "False", 
        "momentum": "0.9", 
        "use_global_stats": "False"
      }, 
      "inputs": [[34, 0, 0], [35, 0, 0], [36, 0, 0], [37, 0, 1], [38, 0, 1]]
    }, 
    {
      "op": "Activation", 
      "name": "ssd0_mobilenet0_relu4_fwd", 
      "attrs": {"act_type": "relu"}, 
      "inputs": [[39, 0, 0]]
    }, 
    {
      "op": "null", 
      "name": "ssd0_mobilenet0_conv5_weight", 
      "attrs": {
        "__dtype__": "0", 
        "__lr_mult__": "1.0", 
        "__shape__": "(128, 1, 3, 3)", 
        "__storage_type__": "0", 
        "__wd_mult__": "1.0"
      }, 
      "inputs": []
    }, 
    {
      "op": "Convolution", 
      "name": "ssd0_mobilenet0_conv5_fwd", 
      "attrs": {
        "dilate": "(1, 1)", 
        "kernel": "(3, 3)", 
        "layout": "NCHW", 
        "no_bias": "True", 
        "num_filter": "128", 
        "num_group": "128", 
        "pad": "(1, 1)", 
        "stride": "(1, 1)"
      }, 
      "inputs": [[40, 0, 0], [41, 0, 0]]
    }, 
    {
      "op": "null", 
      "name": "ssd0_mobilenet0_batchnorm5_gamma", 
      "attrs": {
        "__dtype__": "0", 
        "__init__": "ones", 
        "__lr_mult__": "1.0", 
        "__shape__": "(128,)", 
        "__storage_type__": "0", 
        "__wd_mult__": "1.0"
      }, 
      "inputs": []
    }, 
    {
      "op": "null", 
      "name": "ssd0_mobilenet0_batchnorm5_beta", 
      "attrs": {
        "__dtype__": "0", 
        "__init__": "zeros", 
        "__lr_mult__": "1.0", 
        "__shape__": "(128,)", 
        "__storage_type__": "0", 
        "__wd_mult__": "1.0"
      }, 
      "inputs": []
    }, 
    {
      "op": "null", 
      "name": "ssd0_mobilenet0_batchnorm5_running_mean", 
      "attrs": {
        "__dtype__": "0", 
        "__init__": "zeros", 
        "__lr_mult__": "1.0", 
        "__shape__": "(128,)", 
        "__storage_type__": "0", 
        "__wd_mult__": "1.0"
      }, 
      "inputs": []
    }, 
    {
      "op": "null", 
      "name": "ssd0_mobilenet0_batchnorm5_running_var", 
      "attrs": {
        "__dtype__": "0", 
        "__init__": "ones", 
        "__lr_mult__": "1.0", 
        "__shape__": "(128,)", 
        "__storage_type__": "0", 
        "__wd_mult__": "1.0"
      }, 
      "inputs": []
    }, 
    {
      "op": "BatchNorm", 
      "name": "ssd0_mobilenet0_batchnorm5_fwd", 
      "attrs": {
        "axis": "1", 
        "eps": "1e-05", 
        "fix_gamma": "False", 
        "momentum": "0.9", 
        "use_global_stats": "False"
      }, 
      "inputs": [[42, 0, 0], [43, 0, 0], [44, 0, 0], [45, 0, 1], [46, 0, 1]]
    }, 
    {
      "op": "Activation", 
      "name": "ssd0_mobilenet0_relu5_fwd", 
      "attrs": {"act_type": "relu"}, 
      "inputs": [[47, 0, 0]]
    }, 
    {
      "op": "null", 
      "name": "ssd0_mobilenet0_conv6_weight", 
      "attrs": {
        "__dtype__": "0", 
        "__lr_mult__": "1.0", 
        "__shape__": "(128, 128, 1, 1)", 
        "__storage_type__": "0", 
        "__wd_mult__": "1.0"
      }, 
      "inputs": []
    }, 
    {
      "op": "Convolution", 
      "name": "ssd0_mobilenet0_conv6_fwd", 
      "attrs": {
        "dilate": "(1, 1)", 
        "kernel": "(1, 1)", 
        "layout": "NCHW", 
        "no_bias": "True", 
        "num_filter": "128", 
        "num_group": "1", 
        "pad": "(0, 0)", 
        "stride": "(1, 1)"
      }, 
      "inputs": [[48, 0, 0], [49, 0, 0]]
    }, 
    {
      "op": "null", 
      "name": "ssd0_mobilenet0_batchnorm6_gamma", 
      "attrs": {
        "__dtype__": "0", 
        "__init__": "ones", 
        "__lr_mult__": "1.0", 
        "__shape__": "(128,)", 
        "__storage_type__": "0", 
        "__wd_mult__": "1.0"
      }, 
      "inputs": []
    }, 
    {
      "op": "null", 
      "name": "ssd0_mobilenet0_batchnorm6_beta", 
      "attrs": {
        "__dtype__": "0", 
        "__init__": "zeros", 
        "__lr_mult__": "1.0", 
        "__shape__": "(128,)", 
        "__storage_type__": "0", 
        "__wd_mult__": "1.0"
      }, 
      "inputs": []
    }, 
    {
      "op": "null", 
      "name": "ssd0_mobilenet0_batchnorm6_running_mean", 
      "attrs": {
        "__dtype__": "0", 
        "__init__": "zeros", 
        "__lr_mult__": "1.0", 
        "__shape__": "(128,)", 
        "__storage_type__": "0", 
        "__wd_mult__": "1.0"
      }, 
      "inputs": []
    }, 
    {
      "op": "null", 
      "name": "ssd0_mobilenet0_batchnorm6_running_var", 
      "attrs": {
        "__dtype__": "0", 
        "__init__": "ones", 
        "__lr_mult__": "1.0", 
        "__shape__": "(128,)", 
        "__storage_type__": "0", 
        "__wd_mult__": "1.0"
      }, 
      "inputs": []
    }, 
    {
      "op": "BatchNorm", 
      "name": "ssd0_mobilenet0_batchnorm6_fwd", 
      "attrs": {
        "axis": "1", 
        "eps": "1e-05", 
        "fix_gamma": "False", 
        "momentum": "0.9", 
        "use_global_stats": "False"
      }, 
      "inputs": [[50, 0, 0], [51, 0, 0], [52, 0, 0], [53, 0, 1], [54, 0, 1]]
    }, 
    {
      "op": "Activation", 
      "name": "ssd0_mobilenet0_relu6_fwd", 
      "attrs": {"act_type": "relu"}, 
      "inputs": [[55, 0, 0]]
    }, 
    {
      "op": "null", 
      "name": "ssd0_mobilenet0_conv7_weight", 
      "attrs": {
        "__dtype__": "0", 
        "__lr_mult__": "1.0", 
        "__shape__": "(128, 1, 3, 3)", 
        "__storage_type__": "0", 
        "__wd_mult__": "1.0"
      }, 
      "inputs": []
    }, 
    {
      "op": "Convolution", 
      "name": "ssd0_mobilenet0_conv7_fwd", 
      "attrs": {
        "dilate": "(1, 1)", 
        "kernel": "(3, 3)", 
        "layout": "NCHW", 
        "no_bias": "True", 
        "num_filter": "128", 
        "num_group": "128", 
        "pad": "(1, 1)", 
        "stride": "(2, 2)"
      }, 
      "inputs": [[56, 0, 0], [57, 0, 0]]
    }, 
    {
      "op": "null", 
      "name": "ssd0_mobilenet0_batchnorm7_gamma", 
      "attrs": {
        "__dtype__": "0", 
        "__init__": "ones", 
        "__lr_mult__": "1.0", 
        "__shape__": "(128,)", 
        "__storage_type__": "0", 
        "__wd_mult__": "1.0"
      }, 
      "inputs": []
    }, 
    {
      "op": "null", 
      "name": "ssd0_mobilenet0_batchnorm7_beta", 
      "attrs": {
        "__dtype__": "0", 
        "__init__": "zeros", 
        "__lr_mult__": "1.0", 
        "__shape__": "(128,)", 
        "__storage_type__": "0", 
        "__wd_mult__": "1.0"
      }, 
      "inputs": []
    }, 
    {
      "op": "null", 
      "name": "ssd0_mobilenet0_batchnorm7_running_mean", 
      "attrs": {
        "__dtype__": "0", 
        "__init__": "zeros", 
        "__lr_mult__": "1.0", 
        "__shape__": "(128,)", 
        "__storage_type__": "0", 
        "__wd_mult__": "1.0"
      }, 
      "inputs": []
    }, 
    {
      "op": "null", 
      "name": "ssd0_mobilenet0_batchnorm7_running_var", 
      "attrs": {
        "__dtype__": "0", 
        "__init__": "ones", 
        "__lr_mult__": "1.0", 
        "__shape__": "(128,)", 
        "__storage_type__": "0", 
        "__wd_mult__": "1.0"
      }, 
      "inputs": []
    }, 
    {
      "op": "BatchNorm", 
      "name": "ssd0_mobilenet0_batchnorm7_fwd", 
      "attrs": {
        "axis": "1", 
        "eps": "1e-05", 
        "fix_gamma": "False", 
        "momentum": "0.9", 
        "use_global_stats": "False"
      }, 
      "inputs": [[58, 0, 0], [59, 0, 0], [60, 0, 0], [61, 0, 1], [62, 0, 1]]
    }, 
    {
      "op": "Activation", 
      "name": "ssd0_mobilenet0_relu7_fwd", 
      "attrs": {"act_type": "relu"}, 
      "inputs": [[63, 0, 0]]
    }, 
    {
      "op": "null", 
      "name": "ssd0_mobilenet0_conv8_weight", 
      "attrs": {
        "__dtype__": "0", 
        "__lr_mult__": "1.0", 
        "__shape__": "(256, 128, 1, 1)", 
        "__storage_type__": "0", 
        "__wd_mult__": "1.0"
      }, 
      "inputs": []
    }, 
    {
      "op": "Convolution", 
      "name": "ssd0_mobilenet0_conv8_fwd", 
      "attrs": {
        "dilate": "(1, 1)", 
        "kernel": "(1, 1)", 
        "layout": "NCHW", 
        "no_bias": "True", 
        "num_filter": "256", 
        "num_group": "1", 
        "pad": "(0, 0)", 
        "stride": "(1, 1)"
      }, 
      "inputs": [[64, 0, 0], [65, 0, 0]]
    }, 
    {
      "op": "null", 
      "name": "ssd0_mobilenet0_batchnorm8_gamma", 
      "attrs": {
        "__dtype__": "0", 
        "__init__": "ones", 
        "__lr_mult__": "1.0", 
        "__shape__": "(256,)", 
        "__storage_type__": "0", 
        "__wd_mult__": "1.0"
      }, 
      "inputs": []
    }, 
    {
      "op": "null", 
      "name": "ssd0_mobilenet0_batchnorm8_beta", 
      "attrs": {
        "__dtype__": "0", 
        "__init__": "zeros", 
        "__lr_mult__": "1.0", 
        "__shape__": "(256,)", 
        "__storage_type__": "0", 
        "__wd_mult__": "1.0"
      }, 
      "inputs": []
    }, 
    {
      "op": "null", 
      "name": "ssd0_mobilenet0_batchnorm8_running_mean", 
      "attrs": {
        "__dtype__": "0", 
        "__init__": "zeros", 
        "__lr_mult__": "1.0", 
        "__shape__": "(256,)", 
        "__storage_type__": "0", 
        "__wd_mult__": "1.0"
      }, 
      "inputs": []
    }, 
    {
      "op": "null", 
      "name": "ssd0_mobilenet0_batchnorm8_running_var", 
      "attrs": {
        "__dtype__": "0", 
        "__init__": "ones", 
        "__lr_mult__": "1.0", 
        "__shape__": "(256,)", 
        "__storage_type__": "0", 
        "__wd_mult__": "1.0"
      }, 
      "inputs": []
    }, 
    {
      "op": "BatchNorm", 
      "name": "ssd0_mobilenet0_batchnorm8_fwd", 
      "attrs": {
        "axis": "1", 
        "eps": "1e-05", 
        "fix_gamma": "False", 
        "momentum": "0.9", 
        "use_global_stats": "False"
      }, 
      "inputs": [[66, 0, 0], [67, 0, 0], [68, 0, 0], [69, 0, 1], [70, 0, 1]]
    }, 
    {
      "op": "Activation", 
      "name": "ssd0_mobilenet0_relu8_fwd", 
      "attrs": {"act_type": "relu"}, 
      "inputs": [[71, 0, 0]]
    }, 
    {
      "op": "null", 
      "name": "ssd0_mobilenet0_conv9_weight", 
      "attrs": {
        "__dtype__": "0", 
        "__lr_mult__": "1.0", 
        "__shape__": "(256, 1, 3, 3)", 
        "__storage_type__": "0", 
        "__wd_mult__": "1.0"
      }, 
      "inputs": []
    }, 
    {
      "op": "Convolution", 
      "name": "ssd0_mobilenet0_conv9_fwd", 
      "attrs": {
        "dilate": "(1, 1)", 
        "kernel": "(3, 3)", 
        "layout": "NCHW", 
        "no_bias": "True", 
        "num_filter": "256", 
        "num_group": "256", 
        "pad": "(1, 1)", 
        "stride": "(1, 1)"
      }, 
      "inputs": [[72, 0, 0], [73, 0, 0]]
    }, 
    {
      "op": "null", 
      "name": "ssd0_mobilenet0_batchnorm9_gamma", 
      "attrs": {
        "__dtype__": "0", 
        "__init__": "ones", 
        "__lr_mult__": "1.0", 
        "__shape__": "(256,)", 
        "__storage_type__": "0", 
        "__wd_mult__": "1.0"
      }, 
      "inputs": []
    }, 
    {
      "op": "null", 
      "name": "ssd0_mobilenet0_batchnorm9_beta", 
      "attrs": {
        "__dtype__": "0", 
        "__init__": "zeros", 
        "__lr_mult__": "1.0", 
        "__shape__": "(256,)", 
        "__storage_type__": "0", 
        "__wd_mult__": "1.0"
      }, 
      "inputs": []
    }, 
    {
      "op": "null", 
      "name": "ssd0_mobilenet0_batchnorm9_running_mean", 
      "attrs": {
        "__dtype__": "0", 
        "__init__": "zeros", 
        "__lr_mult__": "1.0", 
        "__shape__": "(256,)", 
        "__storage_type__": "0", 
        "__wd_mult__": "1.0"
      }, 
      "inputs": []
    }, 
    {
      "op": "null", 
      "name": "ssd0_mobilenet0_batchnorm9_running_var", 
      "attrs": {
        "__dtype__": "0", 
        "__init__": "ones", 
        "__lr_mult__": "1.0", 
        "__shape__": "(256,)", 
        "__storage_type__": "0", 
        "__wd_mult__": "1.0"
      }, 
      "inputs": []
    }, 
    {
      "op": "BatchNorm", 
      "name": "ssd0_mobilenet0_batchnorm9_fwd", 
      "attrs": {
        "axis": "1", 
        "eps": "1e-05", 
        "fix_gamma": "False", 
        "momentum": "0.9", 
        "use_global_stats": "False"
      }, 
      "inputs": [[74, 0, 0], [75, 0, 0], [76, 0, 0], [77, 0, 1], [78, 0, 1]]
    }, 
    {
      "op": "Activation", 
      "name": "ssd0_mobilenet0_relu9_fwd", 
      "attrs": {"act_type": "relu"}, 
      "inputs": [[79, 0, 0]]
    }, 
    {
      "op": "null", 
      "name": "ssd0_mobilenet0_conv10_weight", 
      "attrs": {
        "__dtype__": "0", 
        "__lr_mult__": "1.0", 
        "__shape__": "(256, 256, 1, 1)", 
        "__storage_type__": "0", 
        "__wd_mult__": "1.0"
      }, 
      "inputs": []
    }, 
    {
      "op": "Convolution", 
      "name": "ssd0_mobilenet0_conv10_fwd", 
      "attrs": {
        "dilate": "(1, 1)", 
        "kernel": "(1, 1)", 
        "layout": "NCHW", 
        "no_bias": "True", 
        "num_filter": "256", 
        "num_group": "1", 
        "pad": "(0, 0)", 
        "stride": "(1, 1)"
      }, 
      "inputs": [[80, 0, 0], [81, 0, 0]]
    }, 
    {
      "op": "null", 
      "name": "ssd0_mobilenet0_batchnorm10_gamma", 
      "attrs": {
        "__dtype__": "0", 
        "__init__": "ones", 
        "__lr_mult__": "1.0", 
        "__shape__": "(256,)", 
        "__storage_type__": "0", 
        "__wd_mult__": "1.0"
      }, 
      "inputs": []
    }, 
    {
      "op": "null", 
      "name": "ssd0_mobilenet0_batchnorm10_beta", 
      "attrs": {
        "__dtype__": "0", 
        "__init__": "zeros", 
        "__lr_mult__": "1.0", 
        "__shape__": "(256,)", 
        "__storage_type__": "0", 
        "__wd_mult__": "1.0"
      }, 
      "inputs": []
    }, 
    {
      "op": "null", 
      "name": "ssd0_mobilenet0_batchnorm10_running_mean", 
      "attrs": {
        "__dtype__": "0", 
        "__init__": "zeros", 
        "__lr_mult__": "1.0", 
        "__shape__": "(256,)", 
        "__storage_type__": "0", 
        "__wd_mult__": "1.0"
      }, 
      "inputs": []
    }, 
    {
      "op": "null", 
      "name": "ssd0_mobilenet0_batchnorm10_running_var", 
      "attrs": {
        "__dtype__": "0", 
        "__init__": "ones", 
        "__lr_mult__": "1.0", 
        "__shape__": "(256,)", 
        "__storage_type__": "0", 
        "__wd_mult__": "1.0"
      }, 
      "inputs": []
    }, 
    {
      "op": "BatchNorm", 
      "name": "ssd0_mobilenet0_batchnorm10_fwd", 
      "attrs": {
        "axis": "1", 
        "eps": "1e-05", 
        "fix_gamma": "False", 
        "momentum": "0.9", 
        "use_global_stats": "False"
      }, 
      "inputs": [[82, 0, 0], [83, 0, 0], [84, 0, 0], [85, 0, 1], [86, 0, 1]]
    }, 
    {
      "op": "Activation", 
      "name": "ssd0_mobilenet0_relu10_fwd", 
      "attrs": {"act_type": "relu"}, 
      "inputs": [[87, 0, 0]]
    }, 
    {
      "op": "null", 
      "name": "ssd0_mobilenet0_conv11_weight", 
      "attrs": {
        "__dtype__": "0", 
        "__lr_mult__": "1.0", 
        "__shape__": "(256, 1, 3, 3)", 
        "__storage_type__": "0", 
        "__wd_mult__": "1.0"
      }, 
      "inputs": []
    }, 
    {
      "op": "Convolution", 
      "name": "ssd0_mobilenet0_conv11_fwd", 
      "attrs": {
        "dilate": "(1, 1)", 
        "kernel": "(3, 3)", 
        "layout": "NCHW", 
        "no_bias": "True", 
        "num_filter": "256", 
        "num_group": "256", 
        "pad": "(1, 1)", 
        "stride": "(2, 2)"
      }, 
      "inputs": [[88, 0, 0], [89, 0, 0]]
    }, 
    {
      "op": "null", 
      "name": "ssd0_mobilenet0_batchnorm11_gamma", 
      "attrs": {
        "__dtype__": "0", 
        "__init__": "ones", 
        "__lr_mult__": "1.0", 
        "__shape__": "(256,)", 
        "__storage_type__": "0", 
        "__wd_mult__": "1.0"
      }, 
      "inputs": []
    }, 
    {
      "op": "null", 
      "name": "ssd0_mobilenet0_batchnorm11_beta", 
      "attrs": {
        "__dtype__": "0", 
        "__init__": "zeros", 
        "__lr_mult__": "1.0", 
        "__shape__": "(256,)", 
        "__storage_type__": "0", 
        "__wd_mult__": "1.0"
      }, 
      "inputs": []
    }, 
    {
      "op": "null", 
      "name": "ssd0_mobilenet0_batchnorm11_running_mean", 
      "attrs": {
        "__dtype__": "0", 
        "__init__": "zeros", 
        "__lr_mult__": "1.0", 
        "__shape__": "(256,)", 
        "__storage_type__": "0", 
        "__wd_mult__": "1.0"
      }, 
      "inputs": []
    }, 
    {
      "op": "null", 
      "name": "ssd0_mobilenet0_batchnorm11_running_var", 
      "attrs": {
        "__dtype__": "0", 
        "__init__": "ones", 
        "__lr_mult__": "1.0", 
        "__shape__": "(256,)", 
        "__storage_type__": "0", 
        "__wd_mult__": "1.0"
      }, 
      "inputs": []
    }, 
    {
      "op": "BatchNorm", 
      "name": "ssd0_mobilenet0_batchnorm11_fwd", 
      "attrs": {
        "axis": "1", 
        "eps": "1e-05", 
        "fix_gamma": "False", 
        "momentum": "0.9", 
        "use_global_stats": "False"
      }, 
      "inputs": [[90, 0, 0], [91, 0, 0], [92, 0, 0], [93, 0, 1], [94, 0, 1]]
    }, 
    {
      "op": "Activation", 
      "name": "ssd0_mobilenet0_relu11_fwd", 
      "attrs": {"act_type": "relu"}, 
      "inputs": [[95, 0, 0]]
    }, 
    {
      "op": "null", 
      "name": "ssd0_mobilenet0_conv12_weight", 
      "attrs": {
        "__dtype__": "0", 
        "__lr_mult__": "1.0", 
        "__shape__": "(512, 256, 1, 1)", 
        "__storage_type__": "0", 
        "__wd_mult__": "1.0"
      }, 
      "inputs": []
    }, 
    {
      "op": "Convolution", 
      "name": "ssd0_mobilenet0_conv12_fwd", 
      "attrs": {
        "dilate": "(1, 1)", 
        "kernel": "(1, 1)", 
        "layout": "NCHW", 
        "no_bias": "True", 
        "num_filter": "512", 
        "num_group": "1", 
        "pad": "(0, 0)", 
        "stride": "(1, 1)"
      }, 
      "inputs": [[96, 0, 0], [97, 0, 0]]
    }, 
    {
      "op": "null", 
      "name": "ssd0_mobilenet0_batchnorm12_gamma", 
      "attrs": {
        "__dtype__": "0", 
        "__init__": "ones", 
        "__lr_mult__": "1.0", 
        "__shape__": "(512,)", 
        "__storage_type__": "0", 
        "__wd_mult__": "1.0"
      }, 
      "inputs": []
    }, 
    {
      "op": "null", 
      "name": "ssd0_mobilenet0_batchnorm12_beta", 
      "attrs": {
        "__dtype__": "0", 
        "__init__": "zeros", 
        "__lr_mult__": "1.0", 
        "__shape__": "(512,)", 
        "__storage_type__": "0", 
        "__wd_mult__": "1.0"
      }, 
      "inputs": []
    }, 
    {
      "op": "null", 
      "name": "ssd0_mobilenet0_batchnorm12_running_mean", 
      "attrs": {
        "__dtype__": "0", 
        "__init__": "zeros", 
        "__lr_mult__": "1.0", 
        "__shape__": "(512,)", 
        "__storage_type__": "0", 
        "__wd_mult__": "1.0"
      }, 
      "inputs": []
    }, 
    {
      "op": "null", 
      "name": "ssd0_mobilenet0_batchnorm12_running_var", 
      "attrs": {
        "__dtype__": "0", 
        "__init__": "ones", 
        "__lr_mult__": "1.0", 
        "__shape__": "(512,)", 
        "__storage_type__": "0", 
        "__wd_mult__": "1.0"
      }, 
      "inputs": []
    }, 
    {
      "op": "BatchNorm", 
      "name": "ssd0_mobilenet0_batchnorm12_fwd", 
      "attrs": {
        "axis": "1", 
        "eps": "1e-05", 
        "fix_gamma": "False", 
        "momentum": "0.9", 
        "use_global_stats": "False"
      }, 
      "inputs": [[98, 0, 0], [99, 0, 0], [100, 0, 0], [101, 0, 1], [102, 0, 1]]
    }, 
    {
      "op": "Activation", 
      "name": "ssd0_mobilenet0_relu12_fwd", 
      "attrs": {"act_type": "relu"}, 
      "inputs": [[103, 0, 0]]
    }, 
    {
      "op": "null", 
      "name": "ssd0_mobilenet0_conv13_weight", 
      "attrs": {
        "__dtype__": "0", 
        "__lr_mult__": "1.0", 
        "__shape__": "(512, 1, 3, 3)", 
        "__storage_type__": "0", 
        "__wd_mult__": "1.0"
      }, 
      "inputs": []
    }, 
    {
      "op": "Convolution", 
      "name": "ssd0_mobilenet0_conv13_fwd", 
      "attrs": {
        "dilate": "(1, 1)", 
        "kernel": "(3, 3)", 
        "layout": "NCHW", 
        "no_bias": "True", 
        "num_filter": "512", 
        "num_group": "512", 
        "pad": "(1, 1)", 
        "stride": "(1, 1)"
      }, 
      "inputs": [[104, 0, 0], [105, 0, 0]]
    }, 
    {
      "op": "null", 
      "name": "ssd0_mobilenet0_batchnorm13_gamma", 
      "attrs": {
        "__dtype__": "0", 
        "__init__": "ones", 
        "__lr_mult__": "1.0", 
        "__shape__": "(512,)", 
        "__storage_type__": "0", 
        "__wd_mult__": "1.0"
      }, 
      "inputs": []
    }, 
    {
      "op": "null", 
      "name": "ssd0_mobilenet0_batchnorm13_beta", 
      "attrs": {
        "__dtype__": "0", 
        "__init__": "zeros", 
        "__lr_mult__": "1.0", 
        "__shape__": "(512,)", 
        "__storage_type__": "0", 
        "__wd_mult__": "1.0"
      }, 
      "inputs": []
    }, 
    {
      "op": "null", 
      "name": "ssd0_mobilenet0_batchnorm13_running_mean", 
      "attrs": {
        "__dtype__": "0", 
        "__init__": "zeros", 
        "__lr_mult__": "1.0", 
        "__shape__": "(512,)", 
        "__storage_type__": "0", 
        "__wd_mult__": "1.0"
      }, 
      "inputs": []
    }, 
    {
      "op": "null", 
      "name": "ssd0_mobilenet0_batchnorm13_running_var", 
      "attrs": {
        "__dtype__": "0", 
        "__init__": "ones", 
        "__lr_mult__": "1.0", 
        "__shape__": "(512,)", 
        "__storage_type__": "0", 
        "__wd_mult__": "1.0"
      }, 
      "inputs": []
    }, 
    {
      "op": "BatchNorm", 
      "name": "ssd0_mobilenet0_batchnorm13_fwd", 
      "attrs": {
        "axis": "1", 
        "eps": "1e-05", 
        "fix_gamma": "False", 
        "momentum": "0.9", 
        "use_global_stats": "False"
      }, 
      "inputs": [[106, 0, 0], [107, 0, 0], [108, 0, 0], [109, 0, 1], [110, 0, 1]]
    }, 
    {
      "op": "Activation", 
      "name": "ssd0_mobilenet0_relu13_fwd", 
      "attrs": {"act_type": "relu"}, 
      "inputs": [[111, 0, 0]]
    }, 
    {
      "op": "null", 
      "name": "ssd0_mobilenet0_conv14_weight", 
      "attrs": {
        "__dtype__": "0", 
        "__lr_mult__": "1.0", 
        "__shape__": "(512, 512, 1, 1)", 
        "__storage_type__": "0", 
        "__wd_mult__": "1.0"
      }, 
      "inputs": []
    }, 
    {
      "op": "Convolution", 
      "name": "ssd0_mobilenet0_conv14_fwd", 
      "attrs": {
        "dilate": "(1, 1)", 
        "kernel": "(1, 1)", 
        "layout": "NCHW", 
        "no_bias": "True", 
        "num_filter": "512", 
        "num_group": "1", 
        "pad": "(0, 0)", 
        "stride": "(1, 1)"
      }, 
      "inputs": [[112, 0, 0], [113, 0, 0]]
    }, 
    {
      "op": "null", 
      "name": "ssd0_mobilenet0_batchnorm14_gamma", 
      "attrs": {
        "__dtype__": "0", 
        "__init__": "ones", 
        "__lr_mult__": "1.0", 
        "__shape__": "(512,)", 
        "__storage_type__": "0", 
        "__wd_mult__": "1.0"
      }, 
      "inputs": []
    }, 
    {
      "op": "null", 
      "name": "ssd0_mobilenet0_batchnorm14_beta", 
      "attrs": {
        "__dtype__": "0", 
        "__init__": "zeros", 
        "__lr_mult__": "1.0", 
        "__shape__": "(512,)", 
        "__storage_type__": "0", 
        "__wd_mult__": "1.0"
      }, 
      "inputs": []
    }, 
    {
      "op": "null", 
      "name": "ssd0_mobilenet0_batchnorm14_running_mean", 
      "attrs": {
        "__dtype__": "0", 
        "__init__": "zeros", 
        "__lr_mult__": "1.0", 
        "__shape__": "(512,)", 
        "__storage_type__": "0", 
        "__wd_mult__": "1.0"
      }, 
      "inputs": []
    }, 
    {
      "op": "null", 
      "name": "ssd0_mobilenet0_batchnorm14_running_var", 
      "attrs": {
        "__dtype__": "0", 
        "__init__": "ones", 
        "__lr_mult__": "1.0", 
        "__shape__": "(512,)", 
        "__storage_type__": "0", 
        "__wd_mult__": "1.0"
      }, 
      "inputs": []
    }, 
    {
      "op": "BatchNorm", 
      "name": "ssd0_mobilenet0_batchnorm14_fwd", 
      "attrs": {
        "axis": "1", 
        "eps": "1e-05", 
        "fix_gamma": "False", 
        "momentum": "0.9", 
        "use_global_stats": "False"
      }, 
      "inputs": [[114, 0, 0], [115, 0, 0], [116, 0, 0], [117, 0, 1], [118, 0, 1]]
    }, 
    {
      "op": "Activation", 
      "name": "ssd0_mobilenet0_relu14_fwd", 
      "attrs": {"act_type": "relu"}, 
      "inputs": [[119, 0, 0]]
    }, 
    {
      "op": "null", 
      "name": "ssd0_mobilenet0_conv15_weight", 
      "attrs": {
        "__dtype__": "0", 
        "__lr_mult__": "1.0", 
        "__shape__": "(512, 1, 3, 3)", 
        "__storage_type__": "0", 
        "__wd_mult__": "1.0"
      }, 
      "inputs": []
    }, 
    {
      "op": "Convolution", 
      "name": "ssd0_mobilenet0_conv15_fwd", 
      "attrs": {
        "dilate": "(1, 1)", 
        "kernel": "(3, 3)", 
        "layout": "NCHW", 
        "no_bias": "True", 
        "num_filter": "512", 
        "num_group": "512", 
        "pad": "(1, 1)", 
        "stride": "(1, 1)"
      }, 
      "inputs": [[120, 0, 0], [121, 0, 0]]
    }, 
    {
      "op": "null", 
      "name": "ssd0_mobilenet0_batchnorm15_gamma", 
      "attrs": {
        "__dtype__": "0", 
        "__init__": "ones", 
        "__lr_mult__": "1.0", 
        "__shape__": "(512,)", 
        "__storage_type__": "0", 
        "__wd_mult__": "1.0"
      }, 
      "inputs": []
    }, 
    {
      "op": "null", 
      "name": "ssd0_mobilenet0_batchnorm15_beta", 
      "attrs": {
        "__dtype__": "0", 
        "__init__": "zeros", 
        "__lr_mult__": "1.0", 
        "__shape__": "(512,)", 
        "__storage_type__": "0", 
        "__wd_mult__": "1.0"
      }, 
      "inputs": []
    }, 
    {
      "op": "null", 
      "name": "ssd0_mobilenet0_batchnorm15_running_mean", 
      "attrs": {
        "__dtype__": "0", 
        "__init__": "zeros", 
        "__lr_mult__": "1.0", 
        "__shape__": "(512,)", 
        "__storage_type__": "0", 
        "__wd_mult__": "1.0"
      }, 
      "inputs": []
    }, 
    {
      "op": "null", 
      "name": "ssd0_mobilenet0_batchnorm15_running_var", 
      "attrs": {
        "__dtype__": "0", 
        "__init__": "ones", 
        "__lr_mult__": "1.0", 
        "__shape__": "(512,)", 
        "__storage_type__": "0", 
        "__wd_mult__": "1.0"
      }, 
      "inputs": []
    }, 
    {
      "op": "BatchNorm", 
      "name": "ssd0_mobilenet0_batchnorm15_fwd", 
      "attrs": {
        "axis": "1", 
        "eps": "1e-05", 
        "fix_gamma": "False", 
        "momentum": "0.9", 
        "use_global_stats": "False"
      }, 
      "inputs": [[122, 0, 0], [123, 0, 0], [124, 0, 0], [125, 0, 1], [126, 0, 1]]
    }, 
    {
      "op": "Activation", 
      "name": "ssd0_mobilenet0_relu15_fwd", 
      "attrs": {"act_type": "relu"}, 
      "inputs": [[127, 0, 0]]
    }, 
    {
      "op": "null", 
      "name": "ssd0_mobilenet0_conv16_weight", 
      "attrs": {
        "__dtype__": "0", 
        "__lr_mult__": "1.0", 
        "__shape__": "(512, 512, 1, 1)", 
        "__storage_type__": "0", 
        "__wd_mult__": "1.0"
      }, 
      "inputs": []
    }, 
    {
      "op": "Convolution", 
      "name": "ssd0_mobilenet0_conv16_fwd", 
      "attrs": {
        "dilate": "(1, 1)", 
        "kernel": "(1, 1)", 
        "layout": "NCHW", 
        "no_bias": "True", 
        "num_filter": "512", 
        "num_group": "1", 
        "pad": "(0, 0)", 
        "stride": "(1, 1)"
      }, 
      "inputs": [[128, 0, 0], [129, 0, 0]]
    }, 
    {
      "op": "null", 
      "name": "ssd0_mobilenet0_batchnorm16_gamma", 
      "attrs": {
        "__dtype__": "0", 
        "__init__": "ones", 
        "__lr_mult__": "1.0", 
        "__shape__": "(512,)", 
        "__storage_type__": "0", 
        "__wd_mult__": "1.0"
      }, 
      "inputs": []
    }, 
    {
      "op": "null", 
      "name": "ssd0_mobilenet0_batchnorm16_beta", 
      "attrs": {
        "__dtype__": "0", 
        "__init__": "zeros", 
        "__lr_mult__": "1.0", 
        "__shape__": "(512,)", 
        "__storage_type__": "0", 
        "__wd_mult__": "1.0"
      }, 
      "inputs": []
    }, 
    {
      "op": "null", 
      "name": "ssd0_mobilenet0_batchnorm16_running_mean", 
      "attrs": {
        "__dtype__": "0", 
        "__init__": "zeros", 
        "__lr_mult__": "1.0", 
        "__shape__": "(512,)", 
        "__storage_type__": "0", 
        "__wd_mult__": "1.0"
      }, 
      "inputs": []
    }, 
    {
      "op": "null", 
      "name": "ssd0_mobilenet0_batchnorm16_running_var", 
      "attrs": {
        "__dtype__": "0", 
        "__init__": "ones", 
        "__lr_mult__": "1.0", 
        "__shape__": "(512,)", 
        "__storage_type__": "0", 
        "__wd_mult__": "1.0"
      }, 
      "inputs": []
    }, 
    {
      "op": "BatchNorm", 
      "name": "ssd0_mobilenet0_batchnorm16_fwd", 
      "attrs": {
        "axis": "1", 
        "eps": "1e-05", 
        "fix_gamma": "False", 
        "momentum": "0.9", 
        "use_global_stats": "False"
      }, 
      "inputs": [[130, 0, 0], [131, 0, 0], [132, 0, 0], [133, 0, 1], [134, 0, 1]]
    }, 
    {
      "op": "Activation", 
      "name": "ssd0_mobilenet0_relu16_fwd", 
      "attrs": {"act_type": "relu"}, 
      "inputs": [[135, 0, 0]]
    }, 
    {
      "op": "null", 
      "name": "ssd0_mobilenet0_conv17_weight", 
      "attrs": {
        "__dtype__": "0", 
        "__lr_mult__": "1.0", 
        "__shape__": "(512, 1, 3, 3)", 
        "__storage_type__": "0", 
        "__wd_mult__": "1.0"
      }, 
      "inputs": []
    }, 
    {
      "op": "Convolution", 
      "name": "ssd0_mobilenet0_conv17_fwd", 
      "attrs": {
        "dilate": "(1, 1)", 
        "kernel": "(3, 3)", 
        "layout": "NCHW", 
        "no_bias": "True", 
        "num_filter": "512", 
        "num_group": "512", 
        "pad": "(1, 1)", 
        "stride": "(1, 1)"
      }, 
      "inputs": [[136, 0, 0], [137, 0, 0]]
    }, 
    {
      "op": "null", 
      "name": "ssd0_mobilenet0_batchnorm17_gamma", 
      "attrs": {
        "__dtype__": "0", 
        "__init__": "ones", 
        "__lr_mult__": "1.0", 
        "__shape__": "(512,)", 
        "__storage_type__": "0", 
        "__wd_mult__": "1.0"
      }, 
      "inputs": []
    }, 
    {
      "op": "null", 
      "name": "ssd0_mobilenet0_batchnorm17_beta", 
      "attrs": {
        "__dtype__": "0", 
        "__init__": "zeros", 
        "__lr_mult__": "1.0", 
        "__shape__": "(512,)", 
        "__storage_type__": "0", 
        "__wd_mult__": "1.0"
      }, 
      "inputs": []
    }, 
    {
      "op": "null", 
      "name": "ssd0_mobilenet0_batchnorm17_running_mean", 
      "attrs": {
        "__dtype__": "0", 
        "__init__": "zeros", 
        "__lr_mult__": "1.0", 
        "__shape__": "(512,)", 
        "__storage_type__": "0", 
        "__wd_mult__": "1.0"
      }, 
      "inputs": []
    }, 
    {
      "op": "null", 
      "name": "ssd0_mobilenet0_batchnorm17_running_var", 
      "attrs": {
        "__dtype__": "0", 
        "__init__": "ones", 
        "__lr_mult__": "1.0", 
        "__shape__": "(512,)", 
        "__storage_type__": "0", 
        "__wd_mult__": "1.0"
      }, 
      "inputs": []
    }, 
    {
      "op": "BatchNorm", 
      "name": "ssd0_mobilenet0_batchnorm17_fwd", 
      "attrs": {
        "axis": "1", 
        "eps": "1e-05", 
        "fix_gamma": "False", 
        "momentum": "0.9", 
        "use_global_stats": "False"
      }, 
      "inputs": [[138, 0, 0], [139, 0, 0], [140, 0, 0], [141, 0, 1], [142, 0, 1]]
    }, 
    {
      "op": "Activation", 
      "name": "ssd0_mobilenet0_relu17_fwd", 
      "attrs": {"act_type": "relu"}, 
      "inputs": [[143, 0, 0]]
    }, 
    {
      "op": "null", 
      "name": "ssd0_mobilenet0_conv18_weight", 
      "attrs": {
        "__dtype__": "0", 
        "__lr_mult__": "1.0", 
        "__shape__": "(512, 512, 1, 1)", 
        "__storage_type__": "0", 
        "__wd_mult__": "1.0"
      }, 
      "inputs": []
    }, 
    {
      "op": "Convolution", 
      "name": "ssd0_mobilenet0_conv18_fwd", 
      "attrs": {
        "dilate": "(1, 1)", 
        "kernel": "(1, 1)", 
        "layout": "NCHW", 
        "no_bias": "True", 
        "num_filter": "512", 
        "num_group": "1", 
        "pad": "(0, 0)", 
        "stride": "(1, 1)"
      }, 
      "inputs": [[144, 0, 0], [145, 0, 0]]
    }, 
    {
      "op": "null", 
      "name": "ssd0_mobilenet0_batchnorm18_gamma", 
      "attrs": {
        "__dtype__": "0", 
        "__init__": "ones", 
        "__lr_mult__": "1.0", 
        "__shape__": "(512,)", 
        "__storage_type__": "0", 
        "__wd_mult__": "1.0"
      }, 
      "inputs": []
    }, 
    {
      "op": "null", 
      "name": "ssd0_mobilenet0_batchnorm18_beta", 
      "attrs": {
        "__dtype__": "0", 
        "__init__": "zeros", 
        "__lr_mult__": "1.0", 
        "__shape__": "(512,)", 
        "__storage_type__": "0", 
        "__wd_mult__": "1.0"
      }, 
      "inputs": []
    }, 
    {
      "op": "null", 
      "name": "ssd0_mobilenet0_batchnorm18_running_mean", 
      "attrs": {
        "__dtype__": "0", 
        "__init__": "zeros", 
        "__lr_mult__": "1.0", 
        "__shape__": "(512,)", 
        "__storage_type__": "0", 
        "__wd_mult__": "1.0"
      }, 
      "inputs": []
    }, 
    {
      "op": "null", 
      "name": "ssd0_mobilenet0_batchnorm18_running_var", 
      "attrs": {
        "__dtype__": "0", 
        "__init__": "ones", 
        "__lr_mult__": "1.0", 
        "__shape__": "(512,)", 
        "__storage_type__": "0", 
        "__wd_mult__": "1.0"
      }, 
      "inputs": []
    }, 
    {
      "op": "BatchNorm", 
      "name": "ssd0_mobilenet0_batchnorm18_fwd", 
      "attrs": {
        "axis": "1", 
        "eps": "1e-05", 
        "fix_gamma": "False", 
        "momentum": "0.9", 
        "use_global_stats": "False"
      }, 
      "inputs": [[146, 0, 0], [147, 0, 0], [148, 0, 0], [149, 0, 1], [150, 0, 1]]
    }, 
    {
      "op": "Activation", 
      "name": "ssd0_mobilenet0_relu18_fwd", 
      "attrs": {"act_type": "relu"}, 
      "inputs": [[151, 0, 0]]
    }, 
    {
      "op": "null", 
      "name": "ssd0_mobilenet0_conv19_weight", 
      "attrs": {
        "__dtype__": "0", 
        "__lr_mult__": "1.0", 
        "__shape__": "(512, 1, 3, 3)", 
        "__storage_type__": "0", 
        "__wd_mult__": "1.0"
      }, 
      "inputs": []
    }, 
    {
      "op": "Convolution", 
      "name": "ssd0_mobilenet0_conv19_fwd", 
      "attrs": {
        "dilate": "(1, 1)", 
        "kernel": "(3, 3)", 
        "layout": "NCHW", 
        "no_bias": "True", 
        "num_filter": "512", 
        "num_group": "512", 
        "pad": "(1, 1)", 
        "stride": "(1, 1)"
      }, 
      "inputs": [[152, 0, 0], [153, 0, 0]]
    }, 
    {
      "op": "null", 
      "name": "ssd0_mobilenet0_batchnorm19_gamma", 
      "attrs": {
        "__dtype__": "0", 
        "__init__": "ones", 
        "__lr_mult__": "1.0", 
        "__shape__": "(512,)", 
        "__storage_type__": "0", 
        "__wd_mult__": "1.0"
      }, 
      "inputs": []
    }, 
    {
      "op": "null", 
      "name": "ssd0_mobilenet0_batchnorm19_beta", 
      "attrs": {
        "__dtype__": "0", 
        "__init__": "zeros", 
        "__lr_mult__": "1.0", 
        "__shape__": "(512,)", 
        "__storage_type__": "0", 
        "__wd_mult__": "1.0"
      }, 
      "inputs": []
    }, 
    {
      "op": "null", 
      "name": "ssd0_mobilenet0_batchnorm19_running_mean", 
      "attrs": {
        "__dtype__": "0", 
        "__init__": "zeros", 
        "__lr_mult__": "1.0", 
        "__shape__": "(512,)", 
        "__storage_type__": "0", 
        "__wd_mult__": "1.0"
      }, 
      "inputs": []
    }, 
    {
      "op": "null", 
      "name": "ssd0_mobilenet0_batchnorm19_running_var", 
      "attrs": {
        "__dtype__": "0", 
        "__init__": "ones", 
        "__lr_mult__": "1.0", 
        "__shape__": "(512,)", 
        "__storage_type__": "0", 
        "__wd_mult__": "1.0"
      }, 
      "inputs": []
    }, 
    {
      "op": "BatchNorm", 
      "name": "ssd0_mobilenet0_batchnorm19_fwd", 
      "attrs": {
        "axis": "1", 
        "eps": "1e-05", 
        "fix_gamma": "False", 
        "momentum": "0.9", 
        "use_global_stats": "False"
      }, 
      "inputs": [[154, 0, 0], [155, 0, 0], [156, 0, 0], [157, 0, 1], [158, 0, 1]]
    }, 
    {
      "op": "Activation", 
      "name": "ssd0_mobilenet0_relu19_fwd", 
      "attrs": {"act_type": "relu"}, 
      "inputs": [[159, 0, 0]]
    }, 
    {
      "op": "null", 
      "name": "ssd0_mobilenet0_conv20_weight", 
      "attrs": {
        "__dtype__": "0", 
        "__lr_mult__": "1.0", 
        "__shape__": "(512, 512, 1, 1)", 
        "__storage_type__": "0", 
        "__wd_mult__": "1.0"
      }, 
      "inputs": []
    }, 
    {
      "op": "Convolution", 
      "name": "ssd0_mobilenet0_conv20_fwd", 
      "attrs": {
        "dilate": "(1, 1)", 
        "kernel": "(1, 1)", 
        "layout": "NCHW", 
        "no_bias": "True", 
        "num_filter": "512", 
        "num_group": "1", 
        "pad": "(0, 0)", 
        "stride": "(1, 1)"
      }, 
      "inputs": [[160, 0, 0], [161, 0, 0]]
    }, 
    {
      "op": "null", 
      "name": "ssd0_mobilenet0_batchnorm20_gamma", 
      "attrs": {
        "__dtype__": "0", 
        "__init__": "ones", 
        "__lr_mult__": "1.0", 
        "__shape__": "(512,)", 
        "__storage_type__": "0", 
        "__wd_mult__": "1.0"
      }, 
      "inputs": []
    }, 
    {
      "op": "null", 
      "name": "ssd0_mobilenet0_batchnorm20_beta", 
      "attrs": {
        "__dtype__": "0", 
        "__init__": "zeros", 
        "__lr_mult__": "1.0", 
        "__shape__": "(512,)", 
        "__storage_type__": "0", 
        "__wd_mult__": "1.0"
      }, 
      "inputs": []
    }, 
    {
      "op": "null", 
      "name": "ssd0_mobilenet0_batchnorm20_running_mean", 
      "attrs": {
        "__dtype__": "0", 
        "__init__": "zeros", 
        "__lr_mult__": "1.0", 
        "__shape__": "(512,)", 
        "__storage_type__": "0", 
        "__wd_mult__": "1.0"
      }, 
      "inputs": []
    }, 
    {
      "op": "null", 
      "name": "ssd0_mobilenet0_batchnorm20_running_var", 
      "attrs": {
        "__dtype__": "0", 
        "__init__": "ones", 
        "__lr_mult__": "1.0", 
        "__shape__": "(512,)", 
        "__storage_type__": "0", 
        "__wd_mult__": "1.0"
      }, 
      "inputs": []
    }, 
    {
      "op": "BatchNorm", 
      "name": "ssd0_mobilenet0_batchnorm20_fwd", 
      "attrs": {
        "axis": "1", 
        "eps": "1e-05", 
        "fix_gamma": "False", 
        "momentum": "0.9", 
        "use_global_stats": "False"
      }, 
      "inputs": [[162, 0, 0], [163, 0, 0], [164, 0, 0], [165, 0, 1], [166, 0, 1]]
    }, 
    {
      "op": "Activation", 
      "name": "ssd0_mobilenet0_relu20_fwd", 
      "attrs": {"act_type": "relu"}, 
      "inputs": [[167, 0, 0]]
    }, 
    {
      "op": "null", 
      "name": "ssd0_mobilenet0_conv21_weight", 
      "attrs": {
        "__dtype__": "0", 
        "__lr_mult__": "1.0", 
        "__shape__": "(512, 1, 3, 3)", 
        "__storage_type__": "0", 
        "__wd_mult__": "1.0"
      }, 
      "inputs": []
    }, 
    {
      "op": "Convolution", 
      "name": "ssd0_mobilenet0_conv21_fwd", 
      "attrs": {
        "dilate": "(1, 1)", 
        "kernel": "(3, 3)", 
        "layout": "NCHW", 
        "no_bias": "True", 
        "num_filter": "512", 
        "num_group": "512", 
        "pad": "(1, 1)", 
        "stride": "(1, 1)"
      }, 
      "inputs": [[168, 0, 0], [169, 0, 0]]
    }, 
    {
      "op": "null", 
      "name": "ssd0_mobilenet0_batchnorm21_gamma", 
      "attrs": {
        "__dtype__": "0", 
        "__init__": "ones", 
        "__lr_mult__": "1.0", 
        "__shape__": "(512,)", 
        "__storage_type__": "0", 
        "__wd_mult__": "1.0"
      }, 
      "inputs": []
    }, 
    {
      "op": "null", 
      "name": "ssd0_mobilenet0_batchnorm21_beta", 
      "attrs": {
        "__dtype__": "0", 
        "__init__": "zeros", 
        "__lr_mult__": "1.0", 
        "__shape__": "(512,)", 
        "__storage_type__": "0", 
        "__wd_mult__": "1.0"
      }, 
      "inputs": []
    }, 
    {
      "op": "null", 
      "name": "ssd0_mobilenet0_batchnorm21_running_mean", 
      "attrs": {
        "__dtype__": "0", 
        "__init__": "zeros", 
        "__lr_mult__": "1.0", 
        "__shape__": "(512,)", 
        "__storage_type__": "0", 
        "__wd_mult__": "1.0"
      }, 
      "inputs": []
    }, 
    {
      "op": "null", 
      "name": "ssd0_mobilenet0_batchnorm21_running_var", 
      "attrs": {
        "__dtype__": "0", 
        "__init__": "ones", 
        "__lr_mult__": "1.0", 
        "__shape__": "(512,)", 
        "__storage_type__": "0", 
        "__wd_mult__": "1.0"
      }, 
      "inputs": []
    }, 
    {
      "op": "BatchNorm", 
      "name": "ssd0_mobilenet0_batchnorm21_fwd", 
      "attrs": {
        "axis": "1", 
        "eps": "1e-05", 
        "fix_gamma": "False", 
        "momentum": "0.9", 
        "use_global_stats": "False"
      }, 
      "inputs": [[170, 0, 0], [171, 0, 0], [172, 0, 0], [173, 0, 1], [174, 0, 1]]
    }, 
    {
      "op": "Activation", 
      "name": "ssd0_mobilenet0_relu21_fwd", 
      "attrs": {"act_type": "relu"}, 
      "inputs": [[175, 0, 0]]
    }, 
    {
      "op": "null", 
      "name": "ssd0_mobilenet0_conv22_weight", 
      "attrs": {
        "__dtype__": "0", 
        "__lr_mult__": "1.0", 
        "__shape__": "(512, 512, 1, 1)", 
        "__storage_type__": "0", 
        "__wd_mult__": "1.0"
      }, 
      "inputs": []
    }, 
    {
      "op": "Convolution", 
      "name": "ssd0_mobilenet0_conv22_fwd", 
      "attrs": {
        "dilate": "(1, 1)", 
        "kernel": "(1, 1)", 
        "layout": "NCHW", 
        "no_bias": "True", 
        "num_filter": "512", 
        "num_group": "1", 
        "pad": "(0, 0)", 
        "stride": "(1, 1)"
      }, 
      "inputs": [[176, 0, 0], [177, 0, 0]]
    }, 
    {
      "op": "null", 
      "name": "ssd0_mobilenet0_batchnorm22_gamma", 
      "attrs": {
        "__dtype__": "0", 
        "__init__": "ones", 
        "__lr_mult__": "1.0", 
        "__shape__": "(512,)", 
        "__storage_type__": "0", 
        "__wd_mult__": "1.0"
      }, 
      "inputs": []
    }, 
    {
      "op": "null", 
      "name": "ssd0_mobilenet0_batchnorm22_beta", 
      "attrs": {
        "__dtype__": "0", 
        "__init__": "zeros", 
        "__lr_mult__": "1.0", 
        "__shape__": "(512,)", 
        "__storage_type__": "0", 
        "__wd_mult__": "1.0"
      }, 
      "inputs": []
    }, 
    {
      "op": "null", 
      "name": "ssd0_mobilenet0_batchnorm22_running_mean", 
      "attrs": {
        "__dtype__": "0", 
        "__init__": "zeros", 
        "__lr_mult__": "1.0", 
        "__shape__": "(512,)", 
        "__storage_type__": "0", 
        "__wd_mult__": "1.0"
      }, 
      "inputs": []
    }, 
    {
      "op": "null", 
      "name": "ssd0_mobilenet0_batchnorm22_running_var", 
      "attrs": {
        "__dtype__": "0", 
        "__init__": "ones", 
        "__lr_mult__": "1.0", 
        "__shape__": "(512,)", 
        "__storage_type__": "0", 
        "__wd_mult__": "1.0"
      }, 
      "inputs": []
    }, 
    {
      "op": "BatchNorm", 
      "name": "ssd0_mobilenet0_batchnorm22_fwd", 
      "attrs": {
        "axis": "1", 
        "eps": "1e-05", 
        "fix_gamma": "False", 
        "momentum": "0.9", 
        "use_global_stats": "False"
      }, 
      "inputs": [[178, 0, 0], [179, 0, 0], [180, 0, 0], [181, 0, 1], [182, 0, 1]]
    }, 
    {
      "op": "Activation", 
      "name": "ssd0_mobilenet0_relu22_fwd", 
      "attrs": {"act_type": "relu"}, 
      "inputs": [[183, 0, 0]]
    }, 
    {
      "op": "null", 
      "name": "ssd0_convpredictor0_conv0_weight", 
      "attrs": {
        "__dtype__": "0", 
        "__init__": "[\"xavier\", {\"rnd_type\": \"uniform\", \"factor_type\": \"avg\", \"magnitude\": 2}]", 
        "__lr_mult__": "1.0", 
        "__shape__": "(84, 0, 3, 3)", 
        "__storage_type__": "0", 
        "__wd_mult__": "1.0"
      }, 
      "inputs": []
    }, 
    {
      "op": "null", 
      "name": "ssd0_convpredictor0_conv0_bias", 
      "attrs": {
        "__dtype__": "0", 
        "__init__": "zeros", 
        "__lr_mult__": "1.0", 
        "__shape__": "(84,)", 
        "__storage_type__": "0", 
        "__wd_mult__": "1.0"
      }, 
      "inputs": []
    }, 
    {
      "op": "Convolution", 
      "name": "ssd0_convpredictor0_conv0_fwd", 
      "attrs": {
        "dilate": "(1, 1)", 
        "kernel": "(3, 3)", 
        "layout": "NCHW", 
        "no_bias": "False", 
        "num_filter": "84", 
        "num_group": "1", 
        "pad": "(1, 1)", 
        "stride": "(1, 1)"
      }, 
      "inputs": [[184, 0, 0], [185, 0, 0], [186, 0, 0]]
    }, 
    {
      "op": "transpose", 
      "name": "ssd0_transpose0", 
      "attrs": {"axes": "(0, 2, 3, 1)"}, 
      "inputs": [[187, 0, 0]]
    }, 
    {
      "op": "Flatten", 
      "name": "ssd0_flatten0", 
      "inputs": [[188, 0, 0]]
    }, 
    {
      "op": "null", 
      "name": "ssd0_mobilenet0_conv23_weight", 
      "attrs": {
        "__dtype__": "0", 
        "__lr_mult__": "1.0", 
        "__shape__": "(512, 1, 3, 3)", 
        "__storage_type__": "0", 
        "__wd_mult__": "1.0"
      }, 
      "inputs": []
    }, 
    {
      "op": "Convolution", 
      "name": "ssd0_mobilenet0_conv23_fwd", 
      "attrs": {
        "dilate": "(1, 1)", 
        "kernel": "(3, 3)", 
        "layout": "NCHW", 
        "no_bias": "True", 
        "num_filter": "512", 
        "num_group": "512", 
        "pad": "(1, 1)", 
        "stride": "(2, 2)"
      }, 
      "inputs": [[184, 0, 0], [190, 0, 0]]
    }, 
    {
      "op": "null", 
      "name": "ssd0_mobilenet0_batchnorm23_gamma", 
      "attrs": {
        "__dtype__": "0", 
        "__init__": "ones", 
        "__lr_mult__": "1.0", 
        "__shape__": "(512,)", 
        "__storage_type__": "0", 
        "__wd_mult__": "1.0"
      }, 
      "inputs": []
    }, 
    {
      "op": "null", 
      "name": "ssd0_mobilenet0_batchnorm23_beta", 
      "attrs": {
        "__dtype__": "0", 
        "__init__": "zeros", 
        "__lr_mult__": "1.0", 
        "__shape__": "(512,)", 
        "__storage_type__": "0", 
        "__wd_mult__": "1.0"
      }, 
      "inputs": []
    }, 
    {
      "op": "null", 
      "name": "ssd0_mobilenet0_batchnorm23_running_mean", 
      "attrs": {
        "__dtype__": "0", 
        "__init__": "zeros", 
        "__lr_mult__": "1.0", 
        "__shape__": "(512,)", 
        "__storage_type__": "0", 
        "__wd_mult__": "1.0"
      }, 
      "inputs": []
    }, 
    {
      "op": "null", 
      "name": "ssd0_mobilenet0_batchnorm23_running_var", 
      "attrs": {
        "__dtype__": "0", 
        "__init__": "ones", 
        "__lr_mult__": "1.0", 
        "__shape__": "(512,)", 
        "__storage_type__": "0", 
        "__wd_mult__": "1.0"
      }, 
      "inputs": []
    }, 
    {
      "op": "BatchNorm", 
      "name": "ssd0_mobilenet0_batchnorm23_fwd", 
      "attrs": {
        "axis": "1", 
        "eps": "1e-05", 
        "fix_gamma": "False", 
        "momentum": "0.9", 
        "use_global_stats": "False"
      }, 
      "inputs": [[191, 0, 0], [192, 0, 0], [193, 0, 0], [194, 0, 1], [195, 0, 1]]
    }, 
    {
      "op": "Activation", 
      "name": "ssd0_mobilenet0_relu23_fwd", 
      "attrs": {"act_type": "relu"}, 
      "inputs": [[196, 0, 0]]
    }, 
    {
      "op": "null", 
      "name": "ssd0_mobilenet0_conv24_weight", 
      "attrs": {
        "__dtype__": "0", 
        "__lr_mult__": "1.0", 
        "__shape__": "(1024, 512, 1, 1)", 
        "__storage_type__": "0", 
        "__wd_mult__": "1.0"
      }, 
      "inputs": []
    }, 
    {
      "op": "Convolution", 
      "name": "ssd0_mobilenet0_conv24_fwd", 
      "attrs": {
        "dilate": "(1, 1)", 
        "kernel": "(1, 1)", 
        "layout": "NCHW", 
        "no_bias": "True", 
        "num_filter": "1024", 
        "num_group": "1", 
        "pad": "(0, 0)", 
        "stride": "(1, 1)"
      }, 
      "inputs": [[197, 0, 0], [198, 0, 0]]
    }, 
    {
      "op": "null", 
      "name": "ssd0_mobilenet0_batchnorm24_gamma", 
      "attrs": {
        "__dtype__": "0", 
        "__init__": "ones", 
        "__lr_mult__": "1.0", 
        "__shape__": "(1024,)", 
        "__storage_type__": "0", 
        "__wd_mult__": "1.0"
      }, 
      "inputs": []
    }, 
    {
      "op": "null", 
      "name": "ssd0_mobilenet0_batchnorm24_beta", 
      "attrs": {
        "__dtype__": "0", 
        "__init__": "zeros", 
        "__lr_mult__": "1.0", 
        "__shape__": "(1024,)", 
        "__storage_type__": "0", 
        "__wd_mult__": "1.0"
      }, 
      "inputs": []
    }, 
    {
      "op": "null", 
      "name": "ssd0_mobilenet0_batchnorm24_running_mean", 
      "attrs": {
        "__dtype__": "0", 
        "__init__": "zeros", 
        "__lr_mult__": "1.0", 
        "__shape__": "(1024,)", 
        "__storage_type__": "0", 
        "__wd_mult__": "1.0"
      }, 
      "inputs": []
    }, 
    {
      "op": "null", 
      "name": "ssd0_mobilenet0_batchnorm24_running_var", 
      "attrs": {
        "__dtype__": "0", 
        "__init__": "ones", 
        "__lr_mult__": "1.0", 
        "__shape__": "(1024,)", 
        "__storage_type__": "0", 
        "__wd_mult__": "1.0"
      }, 
      "inputs": []
    }, 
    {
      "op": "BatchNorm", 
      "name": "ssd0_mobilenet0_batchnorm24_fwd", 
      "attrs": {
        "axis": "1", 
        "eps": "1e-05", 
        "fix_gamma": "False", 
        "momentum": "0.9", 
        "use_global_stats": "False"
      }, 
      "inputs": [[199, 0, 0], [200, 0, 0], [201, 0, 0], [202, 0, 1], [203, 0, 1]]
    }, 
    {
      "op": "Activation", 
      "name": "ssd0_mobilenet0_relu24_fwd", 
      "attrs": {"act_type": "relu"}, 
      "inputs": [[204, 0, 0]]
    }, 
    {
      "op": "null", 
      "name": "ssd0_mobilenet0_conv25_weight", 
      "attrs": {
        "__dtype__": "0", 
        "__lr_mult__": "1.0", 
        "__shape__": "(1024, 1, 3, 3)", 
        "__storage_type__": "0", 
        "__wd_mult__": "1.0"
      }, 
      "inputs": []
    }, 
    {
      "op": "Convolution", 
      "name": "ssd0_mobilenet0_conv25_fwd", 
      "attrs": {
        "dilate": "(1, 1)", 
        "kernel": "(3, 3)", 
        "layout": "NCHW", 
        "no_bias": "True", 
        "num_filter": "1024", 
        "num_group": "1024", 
        "pad": "(1, 1)", 
        "stride": "(1, 1)"
      }, 
      "inputs": [[205, 0, 0], [206, 0, 0]]
    }, 
    {
      "op": "null", 
      "name": "ssd0_mobilenet0_batchnorm25_gamma", 
      "attrs": {
        "__dtype__": "0", 
        "__init__": "ones", 
        "__lr_mult__": "1.0", 
        "__shape__": "(1024,)", 
        "__storage_type__": "0", 
        "__wd_mult__": "1.0"
      }, 
      "inputs": []
    }, 
    {
      "op": "null", 
      "name": "ssd0_mobilenet0_batchnorm25_beta", 
      "attrs": {
        "__dtype__": "0", 
        "__init__": "zeros", 
        "__lr_mult__": "1.0", 
        "__shape__": "(1024,)", 
        "__storage_type__": "0", 
        "__wd_mult__": "1.0"
      }, 
      "inputs": []
    }, 
    {
      "op": "null", 
      "name": "ssd0_mobilenet0_batchnorm25_running_mean", 
      "attrs": {
        "__dtype__": "0", 
        "__init__": "zeros", 
        "__lr_mult__": "1.0", 
        "__shape__": "(1024,)", 
        "__storage_type__": "0", 
        "__wd_mult__": "1.0"
      }, 
      "inputs": []
    }, 
    {
      "op": "null", 
      "name": "ssd0_mobilenet0_batchnorm25_running_var", 
      "attrs": {
        "__dtype__": "0", 
        "__init__": "ones", 
        "__lr_mult__": "1.0", 
        "__shape__": "(1024,)", 
        "__storage_type__": "0", 
        "__wd_mult__": "1.0"
      }, 
      "inputs": []
    }, 
    {
      "op": "BatchNorm", 
      "name": "ssd0_mobilenet0_batchnorm25_fwd", 
      "attrs": {
        "axis": "1", 
        "eps": "1e-05", 
        "fix_gamma": "False", 
        "momentum": "0.9", 
        "use_global_stats": "False"
      }, 
      "inputs": [[207, 0, 0], [208, 0, 0], [209, 0, 0], [210, 0, 1], [211, 0, 1]]
    }, 
    {
      "op": "Activation", 
      "name": "ssd0_mobilenet0_relu25_fwd", 
      "attrs": {"act_type": "relu"}, 
      "inputs": [[212, 0, 0]]
    }, 
    {
      "op": "null", 
      "name": "ssd0_mobilenet0_conv26_weight", 
      "attrs": {
        "__dtype__": "0", 
        "__lr_mult__": "1.0", 
        "__shape__": "(1024, 1024, 1, 1)", 
        "__storage_type__": "0", 
        "__wd_mult__": "1.0"
      }, 
      "inputs": []
    }, 
    {
      "op": "Convolution", 
      "name": "ssd0_mobilenet0_conv26_fwd", 
      "attrs": {
        "dilate": "(1, 1)", 
        "kernel": "(1, 1)", 
        "layout": "NCHW", 
        "no_bias": "True", 
        "num_filter": "1024", 
        "num_group": "1", 
        "pad": "(0, 0)", 
        "stride": "(1, 1)"
      }, 
      "inputs": [[213, 0, 0], [214, 0, 0]]
    }, 
    {
      "op": "null", 
      "name": "ssd0_mobilenet0_batchnorm26_gamma", 
      "attrs": {
        "__dtype__": "0", 
        "__init__": "ones", 
        "__lr_mult__": "1.0", 
        "__shape__": "(1024,)", 
        "__storage_type__": "0", 
        "__wd_mult__": "1.0"
      }, 
      "inputs": []
    }, 
    {
      "op": "null", 
      "name": "ssd0_mobilenet0_batchnorm26_beta", 
      "attrs": {
        "__dtype__": "0", 
        "__init__": "zeros", 
        "__lr_mult__": "1.0", 
        "__shape__": "(1024,)", 
        "__storage_type__": "0", 
        "__wd_mult__": "1.0"
      }, 
      "inputs": []
    }, 
    {
      "op": "null", 
      "name": "ssd0_mobilenet0_batchnorm26_running_mean", 
      "attrs": {
        "__dtype__": "0", 
        "__init__": "zeros", 
        "__lr_mult__": "1.0", 
        "__shape__": "(1024,)", 
        "__storage_type__": "0", 
        "__wd_mult__": "1.0"
      }, 
      "inputs": []
    }, 
    {
      "op": "null", 
      "name": "ssd0_mobilenet0_batchnorm26_running_var", 
      "attrs": {
        "__dtype__": "0", 
        "__init__": "ones", 
        "__lr_mult__": "1.0", 
        "__shape__": "(1024,)", 
        "__storage_type__": "0", 
        "__wd_mult__": "1.0"
      }, 
      "inputs": []
    }, 
    {
      "op": "BatchNorm", 
      "name": "ssd0_mobilenet0_batchnorm26_fwd", 
      "attrs": {
        "axis": "1", 
        "eps": "1e-05", 
        "fix_gamma": "False", 
        "momentum": "0.9", 
        "use_global_stats": "False"
      }, 
      "inputs": [[215, 0, 0], [216, 0, 0], [217, 0, 0], [218, 0, 1], [219, 0, 1]]
    }, 
    {
      "op": "Activation", 
      "name": "ssd0_mobilenet0_relu26_fwd", 
      "attrs": {"act_type": "relu"}, 
      "inputs": [[220, 0, 0]]
    }, 
    {
      "op": "null", 
      "name": "ssd0_convpredictor2_conv0_weight", 
      "attrs": {
        "__dtype__": "0", 
        "__init__": "[\"xavier\", {\"rnd_type\": \"uniform\", \"factor_type\": \"avg\", \"magnitude\": 2}]", 
        "__lr_mult__": "1.0", 
        "__shape__": "(126, 0, 3, 3)", 
        "__storage_type__": "0", 
        "__wd_mult__": "1.0"
      }, 
      "inputs": []
    }, 
    {
      "op": "null", 
      "name": "ssd0_convpredictor2_conv0_bias", 
      "attrs": {
        "__dtype__": "0", 
        "__init__": "zeros", 
        "__lr_mult__": "1.0", 
        "__shape__": "(126,)", 
        "__storage_type__": "0", 
        "__wd_mult__": "1.0"
      }, 
      "inputs": []
    }, 
    {
      "op": "Convolution", 
      "name": "ssd0_convpredictor2_conv0_fwd", 
      "attrs": {
        "dilate": "(1, 1)", 
        "kernel": "(3, 3)", 
        "layout": "NCHW", 
        "no_bias": "False", 
        "num_filter": "126", 
        "num_group": "1", 
        "pad": "(1, 1)", 
        "stride": "(1, 1)"
      }, 
      "inputs": [[221, 0, 0], [222, 0, 0], [223, 0, 0]]
    }, 
    {
      "op": "transpose", 
      "name": "ssd0_transpose1", 
      "attrs": {"axes": "(0, 2, 3, 1)"}, 
      "inputs": [[224, 0, 0]]
    }, 
    {
      "op": "Flatten", 
      "name": "ssd0_flatten1", 
      "inputs": [[225, 0, 0]]
    }, 
    {
      "op": "null", 
      "name": "ssd0_expand_trans_conv0_weight", 
      "attrs": {
        "__init__": "<mxnet.initializer.Xavier object at 0x7ff0cc0647f0>", 
        "kernel": "(1, 1)", 
        "no_bias": "True", 
        "num_filter": "512"
      }, 
      "inputs": []
    }, 
    {
      "op": "Convolution", 
      "name": "ssd0_expand_trans_conv0", 
      "attrs": {
        "__init__": "<mxnet.initializer.Xavier object at 0x7ff0cc0647f0>", 
        "kernel": "(1, 1)", 
        "no_bias": "True", 
        "num_filter": "512"
      }, 
      "inputs": [[221, 0, 0], [227, 0, 0]]
    }, 
    {
      "op": "null", 
      "name": "ssd0_expand_trans_bn0_gamma", 
      "inputs": []
    }, 
    {
      "op": "null", 
      "name": "ssd0_expand_trans_bn0_beta", 
      "inputs": []
    }, 
    {
      "op": "null", 
      "name": "ssd0_expand_trans_bn0_moving_mean", 
      "attrs": {"__init__": "[\"zero\", {}]"}, 
      "inputs": []
    }, 
    {
      "op": "null", 
      "name": "ssd0_expand_trans_bn0_moving_var", 
      "attrs": {"__init__": "[\"one\", {}]"}, 
      "inputs": []
    }, 
    {
      "op": "BatchNorm", 
      "name": "ssd0_expand_trans_bn0", 
      "inputs": [[228, 0, 0], [229, 0, 0], [230, 0, 0], [231, 0, 1], [232, 0, 1]]
    }, 
    {
      "op": "Activation", 
      "name": "ssd0_expand_trans_relu0", 
      "attrs": {"act_type": "relu"}, 
      "inputs": [[233, 0, 0]]
    }, 
    {
      "op": "null", 
      "name": "ssd0_expand_conv0_weight", 
      "attrs": {
        "__init__": "<mxnet.initializer.Xavier object at 0x7ff0cc0647f0>", 
        "kernel": "(3, 3)", 
        "no_bias": "True", 
        "num_filter": "512", 
        "pad": "(1, 1)", 
        "stride": "(2, 2)"
      }, 
      "inputs": []
    }, 
    {
      "op": "Convolution", 
      "name": "ssd0_expand_conv0", 
      "attrs": {
        "__init__": "<mxnet.initializer.Xavier object at 0x7ff0cc0647f0>", 
        "kernel": "(3, 3)", 
        "no_bias": "True", 
        "num_filter": "512", 
        "pad": "(1, 1)", 
        "stride": "(2, 2)"
      }, 
      "inputs": [[234, 0, 0], [235, 0, 0]]
    }, 
    {
      "op": "null", 
      "name": "ssd0_expand_bn0_gamma", 
      "inputs": []
    }, 
    {
      "op": "null", 
      "name": "ssd0_expand_bn0_beta", 
      "inputs": []
    }, 
    {
      "op": "null", 
      "name": "ssd0_expand_bn0_moving_mean", 
      "attrs": {"__init__": "[\"zero\", {}]"}, 
      "inputs": []
    }, 
    {
      "op": "null", 
      "name": "ssd0_expand_bn0_moving_var", 
      "attrs": {"__init__": "[\"one\", {}]"}, 
      "inputs": []
    }, 
    {
      "op": "BatchNorm", 
      "name": "ssd0_expand_bn0", 
      "inputs": [[236, 0, 0], [237, 0, 0], [238, 0, 0], [239, 0, 1], [240, 0, 1]]
    }, 
    {
      "op": "Activation", 
      "name": "ssd0_expand_reu0", 
      "attrs": {"act_type": "relu"}, 
      "inputs": [[241, 0, 0]]
    }, 
    {
      "op": "null", 
      "name": "ssd0_convpredictor4_conv0_weight", 
      "attrs": {
        "__dtype__": "0", 
        "__init__": "[\"xavier\", {\"rnd_type\": \"uniform\", \"factor_type\": \"avg\", \"magnitude\": 2}]", 
        "__lr_mult__": "1.0", 
        "__shape__": "(126, 0, 3, 3)", 
        "__storage_type__": "0", 
        "__wd_mult__": "1.0"
      }, 
      "inputs": []
    }, 
    {
      "op": "null", 
      "name": "ssd0_convpredictor4_conv0_bias", 
      "attrs": {
        "__dtype__": "0", 
        "__init__": "zeros", 
        "__lr_mult__": "1.0", 
        "__shape__": "(126,)", 
        "__storage_type__": "0", 
        "__wd_mult__": "1.0"
      }, 
      "inputs": []
    }, 
    {
      "op": "Convolution", 
      "name": "ssd0_convpredictor4_conv0_fwd", 
      "attrs": {
        "dilate": "(1, 1)", 
        "kernel": "(3, 3)", 
        "layout": "NCHW", 
        "no_bias": "False", 
        "num_filter": "126", 
        "num_group": "1", 
        "pad": "(1, 1)", 
        "stride": "(1, 1)"
      }, 
      "inputs": [[242, 0, 0], [243, 0, 0], [244, 0, 0]]
    }, 
    {
      "op": "transpose", 
      "name": "ssd0_transpose2", 
      "attrs": {"axes": "(0, 2, 3, 1)"}, 
      "inputs": [[245, 0, 0]]
    }, 
    {
      "op": "Flatten", 
      "name": "ssd0_flatten2", 
      "inputs": [[246, 0, 0]]
    }, 
    {
      "op": "null", 
      "name": "ssd0_expand_trans_conv1_weight", 
      "attrs": {
        "__init__": "<mxnet.initializer.Xavier object at 0x7ff0cc0647f0>", 
        "kernel": "(1, 1)", 
        "no_bias": "True", 
        "num_filter": "512"
      }, 
      "inputs": []
    }, 
    {
      "op": "Convolution", 
      "name": "ssd0_expand_trans_conv1", 
      "attrs": {
        "__init__": "<mxnet.initializer.Xavier object at 0x7ff0cc0647f0>", 
        "kernel": "(1, 1)", 
        "no_bias": "True", 
        "num_filter": "512"
      }, 
      "inputs": [[242, 0, 0], [248, 0, 0]]
    }, 
    {
      "op": "null", 
      "name": "ssd0_expand_trans_bn1_gamma", 
      "inputs": []
    }, 
    {
      "op": "null", 
      "name": "ssd0_expand_trans_bn1_beta", 
      "inputs": []
    }, 
    {
      "op": "null", 
      "name": "ssd0_expand_trans_bn1_moving_mean", 
      "attrs": {"__init__": "[\"zero\", {}]"}, 
      "inputs": []
    }, 
    {
      "op": "null", 
      "name": "ssd0_expand_trans_bn1_moving_var", 
      "attrs": {"__init__": "[\"one\", {}]"}, 
      "inputs": []
    }, 
    {
      "op": "BatchNorm", 
      "name": "ssd0_expand_trans_bn1", 
      "inputs": [[249, 0, 0], [250, 0, 0], [251, 0, 0], [252, 0, 1], [253, 0, 1]]
    }, 
    {
      "op": "Activation", 
      "name": "ssd0_expand_trans_relu1", 
      "attrs": {"act_type": "relu"}, 
      "inputs": [[254, 0, 0]]
    }, 
    {
      "op": "null", 
      "name": "ssd0_expand_conv1_weight", 
      "attrs": {
        "__init__": "<mxnet.initializer.Xavier object at 0x7ff0cc0647f0>", 
        "kernel": "(3, 3)", 
        "no_bias": "True", 
        "num_filter": "512", 
        "pad": "(1, 1)", 
        "stride": "(2, 2)"
      }, 
      "inputs": []
    }, 
    {
      "op": "Convolution", 
      "name": "ssd0_expand_conv1", 
      "attrs": {
        "__init__": "<mxnet.initializer.Xavier object at 0x7ff0cc0647f0>", 
        "kernel": "(3, 3)", 
        "no_bias": "True", 
        "num_filter": "512", 
        "pad": "(1, 1)", 
        "stride": "(2, 2)"
      }, 
      "inputs": [[255, 0, 0], [256, 0, 0]]
    }, 
    {
      "op": "null", 
      "name": "ssd0_expand_bn1_gamma", 
      "inputs": []
    }, 
    {
      "op": "null", 
      "name": "ssd0_expand_bn1_beta", 
      "inputs": []
    }, 
    {
      "op": "null", 
      "name": "ssd0_expand_bn1_moving_mean", 
      "attrs": {"__init__": "[\"zero\", {}]"}, 
      "inputs": []
    }, 
    {
      "op": "null", 
      "name": "ssd0_expand_bn1_moving_var", 
      "attrs": {"__init__": "[\"one\", {}]"}, 
      "inputs": []
    }, 
    {
      "op": "BatchNorm", 
      "name": "ssd0_expand_bn1", 
      "inputs": [[257, 0, 0], [258, 0, 0], [259, 0, 0], [260, 0, 1], [261, 0, 1]]
    }, 
    {
      "op": "Activation", 
      "name": "ssd0_expand_reu1", 
      "attrs": {"act_type": "relu"}, 
      "inputs": [[262, 0, 0]]
    }, 
    {
      "op": "null", 
      "name": "ssd0_convpredictor6_conv0_weight", 
      "attrs": {
        "__dtype__": "0", 
        "__init__": "[\"xavier\", {\"rnd_type\": \"uniform\", \"factor_type\": \"avg\", \"magnitude\": 2}]", 
        "__lr_mult__": "1.0", 
        "__shape__": "(126, 0, 3, 3)", 
        "__storage_type__": "0", 
        "__wd_mult__": "1.0"
      }, 
      "inputs": []
    }, 
    {
      "op": "null", 
      "name": "ssd0_convpredictor6_conv0_bias", 
      "attrs": {
        "__dtype__": "0", 
        "__init__": "zeros", 
        "__lr_mult__": "1.0", 
        "__shape__": "(126,)", 
        "__storage_type__": "0", 
        "__wd_mult__": "1.0"
      }, 
      "inputs": []
    }, 
    {
      "op": "Convolution", 
      "name": "ssd0_convpredictor6_conv0_fwd", 
      "attrs": {
        "dilate": "(1, 1)", 
        "kernel": "(3, 3)", 
        "layout": "NCHW", 
        "no_bias": "False", 
        "num_filter": "126", 
        "num_group": "1", 
        "pad": "(1, 1)", 
        "stride": "(1, 1)"
      }, 
      "inputs": [[263, 0, 0], [264, 0, 0], [265, 0, 0]]
    }, 
    {
      "op": "transpose", 
      "name": "ssd0_transpose3", 
      "attrs": {"axes": "(0, 2, 3, 1)"}, 
      "inputs": [[266, 0, 0]]
    }, 
    {
      "op": "Flatten", 
      "name": "ssd0_flatten3", 
      "inputs": [[267, 0, 0]]
    }, 
    {
      "op": "null", 
      "name": "ssd0_expand_trans_conv2_weight", 
      "attrs": {
        "__init__": "<mxnet.initializer.Xavier object at 0x7ff0cc0647f0>", 
        "kernel": "(1, 1)", 
        "no_bias": "True", 
        "num_filter": "256"
      }, 
      "inputs": []
    }, 
    {
      "op": "Convolution", 
      "name": "ssd0_expand_trans_conv2", 
      "attrs": {
        "__init__": "<mxnet.initializer.Xavier object at 0x7ff0cc0647f0>", 
        "kernel": "(1, 1)", 
        "no_bias": "True", 
        "num_filter": "256"
      }, 
      "inputs": [[263, 0, 0], [269, 0, 0]]
    }, 
    {
      "op": "null", 
      "name": "ssd0_expand_trans_bn2_gamma", 
      "inputs": []
    }, 
    {
      "op": "null", 
      "name": "ssd0_expand_trans_bn2_beta", 
      "inputs": []
    }, 
    {
      "op": "null", 
      "name": "ssd0_expand_trans_bn2_moving_mean", 
      "attrs": {"__init__": "[\"zero\", {}]"}, 
      "inputs": []
    }, 
    {
      "op": "null", 
      "name": "ssd0_expand_trans_bn2_moving_var", 
      "attrs": {"__init__": "[\"one\", {}]"}, 
      "inputs": []
    }, 
    {
      "op": "BatchNorm", 
      "name": "ssd0_expand_trans_bn2", 
      "inputs": [[270, 0, 0], [271, 0, 0], [272, 0, 0], [273, 0, 1], [274, 0, 1]]
    }, 
    {
      "op": "Activation", 
      "name": "ssd0_expand_trans_relu2", 
      "attrs": {"act_type": "relu"}, 
      "inputs": [[275, 0, 0]]
    }, 
    {
      "op": "null", 
      "name": "ssd0_expand_conv2_weight", 
      "attrs": {
        "__init__": "<mxnet.initializer.Xavier object at 0x7ff0cc0647f0>", 
        "kernel": "(3, 3)", 
        "no_bias": "True", 
        "num_filter": "256", 
        "pad": "(1, 1)", 
        "stride": "(2, 2)"
      }, 
      "inputs": []
    }, 
    {
      "op": "Convolution", 
      "name": "ssd0_expand_conv2", 
      "attrs": {
        "__init__": "<mxnet.initializer.Xavier object at 0x7ff0cc0647f0>", 
        "kernel": "(3, 3)", 
        "no_bias": "True", 
        "num_filter": "256", 
        "pad": "(1, 1)", 
        "stride": "(2, 2)"
      }, 
      "inputs": [[276, 0, 0], [277, 0, 0]]
    }, 
    {
      "op": "null", 
      "name": "ssd0_expand_bn2_gamma", 
      "inputs": []
    }, 
    {
      "op": "null", 
      "name": "ssd0_expand_bn2_beta", 
      "inputs": []
    }, 
    {
      "op": "null", 
      "name": "ssd0_expand_bn2_moving_mean", 
      "attrs": {"__init__": "[\"zero\", {}]"}, 
      "inputs": []
    }, 
    {
      "op": "null", 
      "name": "ssd0_expand_bn2_moving_var", 
      "attrs": {"__init__": "[\"one\", {}]"}, 
      "inputs": []
    }, 
    {
      "op": "BatchNorm", 
      "name": "ssd0_expand_bn2", 
      "inputs": [[278, 0, 0], [279, 0, 0], [280, 0, 0], [281, 0, 1], [282, 0, 1]]
    }, 
    {
      "op": "Activation", 
      "name": "ssd0_expand_reu2", 
      "attrs": {"act_type": "relu"}, 
      "inputs": [[283, 0, 0]]
    }, 
    {
      "op": "null", 
      "name": "ssd0_convpredictor8_conv0_weight", 
      "attrs": {
        "__dtype__": "0", 
        "__init__": "[\"xavier\", {\"rnd_type\": \"uniform\", \"factor_type\": \"avg\", \"magnitude\": 2}]", 
        "__lr_mult__": "1.0", 
        "__shape__": "(84, 0, 3, 3)", 
        "__storage_type__": "0", 
        "__wd_mult__": "1.0"
      }, 
      "inputs": []
    }, 
    {
      "op": "null", 
      "name": "ssd0_convpredictor8_conv0_bias", 
      "attrs": {
        "__dtype__": "0", 
        "__init__": "zeros", 
        "__lr_mult__": "1.0", 
        "__shape__": "(84,)", 
        "__storage_type__": "0", 
        "__wd_mult__": "1.0"
      }, 
      "inputs": []
    }, 
    {
      "op": "Convolution", 
      "name": "ssd0_convpredictor8_conv0_fwd", 
      "attrs": {
        "dilate": "(1, 1)", 
        "kernel": "(3, 3)", 
        "layout": "NCHW", 
        "no_bias": "False", 
        "num_filter": "84", 
        "num_group": "1", 
        "pad": "(1, 1)", 
        "stride": "(1, 1)"
      }, 
      "inputs": [[284, 0, 0], [285, 0, 0], [286, 0, 0]]
    }, 
    {
      "op": "transpose", 
      "name": "ssd0_transpose4", 
      "attrs": {"axes": "(0, 2, 3, 1)"}, 
      "inputs": [[287, 0, 0]]
    }, 
    {
      "op": "Flatten", 
      "name": "ssd0_flatten4", 
      "inputs": [[288, 0, 0]]
    }, 
    {
      "op": "null", 
      "name": "ssd0_expand_trans_conv3_weight", 
      "attrs": {
        "__init__": "<mxnet.initializer.Xavier object at 0x7ff0cc0647f0>", 
        "kernel": "(1, 1)", 
        "no_bias": "True", 
        "num_filter": "256"
      }, 
      "inputs": []
    }, 
    {
      "op": "Convolution", 
      "name": "ssd0_expand_trans_conv3", 
      "attrs": {
        "__init__": "<mxnet.initializer.Xavier object at 0x7ff0cc0647f0>", 
        "kernel": "(1, 1)", 
        "no_bias": "True", 
        "num_filter": "256"
      }, 
      "inputs": [[284, 0, 0], [290, 0, 0]]
    }, 
    {
      "op": "null", 
      "name": "ssd0_expand_trans_bn3_gamma", 
      "inputs": []
    }, 
    {
      "op": "null", 
      "name": "ssd0_expand_trans_bn3_beta", 
      "inputs": []
    }, 
    {
      "op": "null", 
      "name": "ssd0_expand_trans_bn3_moving_mean", 
      "attrs": {"__init__": "[\"zero\", {}]"}, 
      "inputs": []
    }, 
    {
      "op": "null", 
      "name": "ssd0_expand_trans_bn3_moving_var", 
      "attrs": {"__init__": "[\"one\", {}]"}, 
      "inputs": []
    }, 
    {
      "op": "BatchNorm", 
      "name": "ssd0_expand_trans_bn3", 
      "inputs": [[291, 0, 0], [292, 0, 0], [293, 0, 0], [294, 0, 1], [295, 0, 1]]
    }, 
    {
      "op": "Activation", 
      "name": "ssd0_expand_trans_relu3", 
      "attrs": {"act_type": "relu"}, 
      "inputs": [[296, 0, 0]]
    }, 
    {
      "op": "null", 
      "name": "ssd0_expand_conv3_weight", 
      "attrs": {
        "__init__": "<mxnet.initializer.Xavier object at 0x7ff0cc0647f0>", 
        "kernel": "(3, 3)", 
        "no_bias": "True", 
        "num_filter": "256", 
        "pad": "(1, 1)", 
        "stride": "(2, 2)"
      }, 
      "inputs": []
    }, 
    {
      "op": "Convolution", 
      "name": "ssd0_expand_conv3", 
      "attrs": {
        "__init__": "<mxnet.initializer.Xavier object at 0x7ff0cc0647f0>", 
        "kernel": "(3, 3)", 
        "no_bias": "True", 
        "num_filter": "256", 
        "pad": "(1, 1)", 
        "stride": "(2, 2)"
      }, 
      "inputs": [[297, 0, 0], [298, 0, 0]]
    }, 
    {
      "op": "null", 
      "name": "ssd0_expand_bn3_gamma", 
      "inputs": []
    }, 
    {
      "op": "null", 
      "name": "ssd0_expand_bn3_beta", 
      "inputs": []
    }, 
    {
      "op": "null", 
      "name": "ssd0_expand_bn3_moving_mean", 
      "attrs": {"__init__": "[\"zero\", {}]"}, 
      "inputs": []
    }, 
    {
      "op": "null", 
      "name": "ssd0_expand_bn3_moving_var", 
      "attrs": {"__init__": "[\"one\", {}]"}, 
      "inputs": []
    }, 
    {
      "op": "BatchNorm", 
      "name": "ssd0_expand_bn3", 
      "inputs": [[299, 0, 0], [300, 0, 0], [301, 0, 0], [302, 0, 1], [303, 0, 1]]
    }, 
    {
      "op": "Activation", 
      "name": "ssd0_expand_reu3", 
      "attrs": {"act_type": "relu"}, 
      "inputs": [[304, 0, 0]]
    }, 
    {
      "op": "null", 
      "name": "ssd0_convpredictor10_conv0_weight", 
      "attrs": {
        "__dtype__": "0", 
        "__init__": "[\"xavier\", {\"rnd_type\": \"uniform\", \"factor_type\": \"avg\", \"magnitude\": 2}]", 
        "__lr_mult__": "1.0", 
        "__shape__": "(84, 0, 3, 3)", 
        "__storage_type__": "0", 
        "__wd_mult__": "1.0"
      }, 
      "inputs": []
    }, 
    {
      "op": "null", 
      "name": "ssd0_convpredictor10_conv0_bias", 
      "attrs": {
        "__dtype__": "0", 
        "__init__": "zeros", 
        "__lr_mult__": "1.0", 
        "__shape__": "(84,)", 
        "__storage_type__": "0", 
        "__wd_mult__": "1.0"
      }, 
      "inputs": []
    }, 
    {
      "op": "Convolution", 
      "name": "ssd0_convpredictor10_conv0_fwd", 
      "attrs": {
        "dilate": "(1, 1)", 
        "kernel": "(3, 3)", 
        "layout": "NCHW", 
        "no_bias": "False", 
        "num_filter": "84", 
        "num_group": "1", 
        "pad": "(1, 1)", 
        "stride": "(1, 1)"
      }, 
      "inputs": [[305, 0, 0], [306, 0, 0], [307, 0, 0]]
    }, 
    {
      "op": "transpose", 
      "name": "ssd0_transpose5", 
      "attrs": {"axes": "(0, 2, 3, 1)"}, 
      "inputs": [[308, 0, 0]]
    }, 
    {
      "op": "Flatten", 
      "name": "ssd0_flatten5", 
      "inputs": [[309, 0, 0]]
    }, 
    {
      "op": "Concat", 
      "name": "ssd0_concat0", 
      "attrs": {
        "dim": "1", 
        "num_args": "6"
      }, 
      "inputs": [[189, 0, 0], [226, 0, 0], [247, 0, 0], [268, 0, 0], [289, 0, 0], [310, 0, 0]]
    }, 
    {
      "op": "Reshape", 
      "name": "ssd0_reshape6", 
      "attrs": {"shape": "(0, -1, 21)"}, 
      "inputs": [[311, 0, 0]]
    }, 
    {
      "op": "softmax", 
      "name": "ssd0_softmax0", 
      "attrs": {"axis": "-1"}, 
      "inputs": [[312, 0, 0]]
    }, 
    {
      "op": "slice_axis", 
      "name": "ssd0_multiperclassdecoder0_slice_axis0", 
      "attrs": {
        "axis": "-1", 
        "begin": "1", 
        "end": "None"
      }, 
      "inputs": [[313, 0, 0]]
    }, 
    {
      "op": "_greater_scalar", 
      "name": "ssd0_multiperclassdecoder0__greater_scalar0", 
      "attrs": {"scalar": "0.01"}, 
      "inputs": [[314, 0, 0]]
    }, 
    {
      "op": "slice_axis", 
      "name": "ssd0_multiperclassdecoder0_slice_axis1", 
      "attrs": {
        "axis": "-1", 
        "begin": "0", 
        "end": "1"
      }, 
      "inputs": [[313, 0, 0]]
    }, 
    {
      "op": "zeros_like", 
      "name": "ssd0_multiperclassdecoder0_zeros_like0", 
      "inputs": [[316, 0, 0]]
    }, 
    {
      "op": "_plus_scalar", 
      "name": "ssd0_multiperclassdecoder0__plusscalar0", 
      "attrs": {"scalar": "0"}, 
      "inputs": [[317, 0, 0]]
    }, 
    {
      "op": "_plus_scalar", 
      "name": "ssd0_multiperclassdecoder0__plusscalar1", 
      "attrs": {"scalar": "1"}, 
      "inputs": [[317, 0, 0]]
    }, 
    {
      "op": "_plus_scalar", 
      "name": "ssd0_multiperclassdecoder0__plusscalar2", 
      "attrs": {"scalar": "2"}, 
      "inputs": [[317, 0, 0]]
    }, 
    {
      "op": "_plus_scalar", 
      "name": "ssd0_multiperclassdecoder0__plusscalar3", 
      "attrs": {"scalar": "3"}, 
      "inputs": [[317, 0, 0]]
    }, 
    {
      "op": "_plus_scalar", 
      "name": "ssd0_multiperclassdecoder0__plusscalar4", 
      "attrs": {"scalar": "4"}, 
      "inputs": [[317, 0, 0]]
    }, 
    {
      "op": "_plus_scalar", 
      "name": "ssd0_multiperclassdecoder0__plusscalar5", 
      "attrs": {"scalar": "5"}, 
      "inputs": [[317, 0, 0]]
    }, 
    {
      "op": "_plus_scalar", 
      "name": "ssd0_multiperclassdecoder0__plusscalar6", 
      "attrs": {"scalar": "6"}, 
      "inputs": [[317, 0, 0]]
    }, 
    {
      "op": "_plus_scalar", 
      "name": "ssd0_multiperclassdecoder0__plusscalar7", 
      "attrs": {"scalar": "7"}, 
      "inputs": [[317, 0, 0]]
    }, 
    {
      "op": "_plus_scalar", 
      "name": "ssd0_multiperclassdecoder0__plusscalar8", 
      "attrs": {"scalar": "8"}, 
      "inputs": [[317, 0, 0]]
    }, 
    {
      "op": "_plus_scalar", 
      "name": "ssd0_multiperclassdecoder0__plusscalar9", 
      "attrs": {"scalar": "9"}, 
      "inputs": [[317, 0, 0]]
    }, 
    {
      "op": "_plus_scalar", 
      "name": "ssd0_multiperclassdecoder0__plusscalar10", 
      "attrs": {"scalar": "10"}, 
      "inputs": [[317, 0, 0]]
    }, 
    {
      "op": "_plus_scalar", 
      "name": "ssd0_multiperclassdecoder0__plusscalar11", 
      "attrs": {"scalar": "11"}, 
      "inputs": [[317, 0, 0]]
    }, 
    {
      "op": "_plus_scalar", 
      "name": "ssd0_multiperclassdecoder0__plusscalar12", 
      "attrs": {"scalar": "12"}, 
      "inputs": [[317, 0, 0]]
    }, 
    {
      "op": "_plus_scalar", 
      "name": "ssd0_multiperclassdecoder0__plusscalar13", 
      "attrs": {"scalar": "13"}, 
      "inputs": [[317, 0, 0]]
    }, 
    {
      "op": "_plus_scalar", 
      "name": "ssd0_multiperclassdecoder0__plusscalar14", 
      "attrs": {"scalar": "14"}, 
      "inputs": [[317, 0, 0]]
    }, 
    {
      "op": "_plus_scalar", 
      "name": "ssd0_multiperclassdecoder0__plusscalar15", 
      "attrs": {"scalar": "15"}, 
      "inputs": [[317, 0, 0]]
    }, 
    {
      "op": "_plus_scalar", 
      "name": "ssd0_multiperclassdecoder0__plusscalar16", 
      "attrs": {"scalar": "16"}, 
      "inputs": [[317, 0, 0]]
    }, 
    {
      "op": "_plus_scalar", 
      "name": "ssd0_multiperclassdecoder0__plusscalar17", 
      "attrs": {"scalar": "17"}, 
      "inputs": [[317, 0, 0]]
    }, 
    {
      "op": "_plus_scalar", 
      "name": "ssd0_multiperclassdecoder0__plusscalar18", 
      "attrs": {"scalar": "18"}, 
      "inputs": [[317, 0, 0]]
    }, 
    {
      "op": "_plus_scalar", 
      "name": "ssd0_multiperclassdecoder0__plusscalar19", 
      "attrs": {"scalar": "19"}, 
      "inputs": [[317, 0, 0]]
    }, 
    {
      "op": "Concat", 
      "name": "ssd0_multiperclassdecoder0_concat0", 
      "attrs": {
        "dim": "-1", 
        "num_args": "20"
      }, 
      "inputs": [
        [318, 0, 0], 
        [319, 0, 0], 
        [320, 0, 0], 
        [321, 0, 0], 
        [322, 0, 0], 
        [323, 0, 0], 
        [324, 0, 0], 
        [325, 0, 0], 
        [326, 0, 0], 
        [327, 0, 0], 
        [328, 0, 0], 
        [329, 0, 0], 
        [330, 0, 0], 
        [331, 0, 0], 
        [332, 0, 0], 
        [333, 0, 0], 
        [334, 0, 0], 
        [335, 0, 0], 
        [336, 0, 0], 
        [337, 0, 0]
      ]
    }, 
    {
      "op": "ones_like", 
      "name": "ssd0_multiperclassdecoder0_ones_like0", 
      "inputs": [[338, 0, 0]]
    }, 
    {
      "op": "_mul_scalar", 
      "name": "ssd0_multiperclassdecoder0__mulscalar0", 
      "attrs": {"scalar": "-1"}, 
      "inputs": [[339, 0, 0]]
    }, 
    {
      "op": "where", 
      "name": "ssd0_multiperclassdecoder0_where0", 
      "inputs": [[315, 0, 0], [338, 0, 0], [340, 0, 0]]
    }, 
    {
      "op": "slice_axis", 
      "name": "ssd0_slice_axis0", 
      "attrs": {
        "axis": "-1", 
        "begin": "0", 
        "end": "1"
      }, 
      "inputs": [[341, 0, 0]]
    }, 
    {
      "op": "zeros_like", 
      "name": "ssd0_multiperclassdecoder0_zeros_like1", 
      "inputs": [[314, 0, 0]]
    }, 
    {
      "op": "where", 
      "name": "ssd0_multiperclassdecoder0_where1", 
      "inputs": [[315, 0, 0], [314, 0, 0], [343, 0, 0]]
    }, 
    {
      "op": "slice_axis", 
      "name": "ssd0_slice_axis1", 
      "attrs": {
        "axis": "-1", 
        "begin": "0", 
        "end": "1"
      }, 
      "inputs": [[344, 0, 0]]
    }, 
    {
      "op": "null", 
      "name": "ssd0_convpredictor1_conv0_weight", 
      "attrs": {
        "__dtype__": "0", 
        "__init__": "[\"xavier\", {\"rnd_type\": \"uniform\", \"factor_type\": \"avg\", \"magnitude\": 2}]", 
        "__lr_mult__": "1.0", 
        "__shape__": "(16, 0, 3, 3)", 
        "__storage_type__": "0", 
        "__wd_mult__": "1.0"
      }, 
      "inputs": []
    }, 
    {
      "op": "null", 
      "name": "ssd0_convpredictor1_conv0_bias", 
      "attrs": {
        "__dtype__": "0", 
        "__init__": "zeros", 
        "__lr_mult__": "1.0", 
        "__shape__": "(16,)", 
        "__storage_type__": "0", 
        "__wd_mult__": "1.0"
      }, 
      "inputs": []
    }, 
    {
      "op": "Convolution", 
      "name": "ssd0_convpredictor1_conv0_fwd", 
      "attrs": {
        "dilate": "(1, 1)", 
        "kernel": "(3, 3)", 
        "layout": "NCHW", 
        "no_bias": "False", 
        "num_filter": "16", 
        "num_group": "1", 
        "pad": "(1, 1)", 
        "stride": "(1, 1)"
      }, 
      "inputs": [[184, 0, 0], [346, 0, 0], [347, 0, 0]]
    }, 
    {
      "op": "transpose", 
      "name": "ssd0_transpose6", 
      "attrs": {"axes": "(0, 2, 3, 1)"}, 
      "inputs": [[348, 0, 0]]
    }, 
    {
      "op": "Flatten", 
      "name": "ssd0_flatten6", 
      "inputs": [[349, 0, 0]]
    }, 
    {
      "op": "null", 
      "name": "ssd0_convpredictor3_conv0_weight", 
      "attrs": {
        "__dtype__": "0", 
        "__init__": "[\"xavier\", {\"rnd_type\": \"uniform\", \"factor_type\": \"avg\", \"magnitude\": 2}]", 
        "__lr_mult__": "1.0", 
        "__shape__": "(24, 0, 3, 3)", 
        "__storage_type__": "0", 
        "__wd_mult__": "1.0"
      }, 
      "inputs": []
    }, 
    {
      "op": "null", 
      "name": "ssd0_convpredictor3_conv0_bias", 
      "attrs": {
        "__dtype__": "0", 
        "__init__": "zeros", 
        "__lr_mult__": "1.0", 
        "__shape__": "(24,)", 
        "__storage_type__": "0", 
        "__wd_mult__": "1.0"
      }, 
      "inputs": []
    }, 
    {
      "op": "Convolution", 
      "name": "ssd0_convpredictor3_conv0_fwd", 
      "attrs": {
        "dilate": "(1, 1)", 
        "kernel": "(3, 3)", 
        "layout": "NCHW", 
        "no_bias": "False", 
        "num_filter": "24", 
        "num_group": "1", 
        "pad": "(1, 1)", 
        "stride": "(1, 1)"
      }, 
      "inputs": [[221, 0, 0], [351, 0, 0], [352, 0, 0]]
    }, 
    {
      "op": "transpose", 
      "name": "ssd0_transpose7", 
      "attrs": {"axes": "(0, 2, 3, 1)"}, 
      "inputs": [[353, 0, 0]]
    }, 
    {
      "op": "Flatten", 
      "name": "ssd0_flatten7", 
      "inputs": [[354, 0, 0]]
    }, 
    {
      "op": "null", 
      "name": "ssd0_convpredictor5_conv0_weight", 
      "attrs": {
        "__dtype__": "0", 
        "__init__": "[\"xavier\", {\"rnd_type\": \"uniform\", \"factor_type\": \"avg\", \"magnitude\": 2}]", 
        "__lr_mult__": "1.0", 
        "__shape__": "(24, 0, 3, 3)", 
        "__storage_type__": "0", 
        "__wd_mult__": "1.0"
      }, 
      "inputs": []
    }, 
    {
      "op": "null", 
      "name": "ssd0_convpredictor5_conv0_bias", 
      "attrs": {
        "__dtype__": "0", 
        "__init__": "zeros", 
        "__lr_mult__": "1.0", 
        "__shape__": "(24,)", 
        "__storage_type__": "0", 
        "__wd_mult__": "1.0"
      }, 
      "inputs": []
    }, 
    {
      "op": "Convolution", 
      "name": "ssd0_convpredictor5_conv0_fwd", 
      "attrs": {
        "dilate": "(1, 1)", 
        "kernel": "(3, 3)", 
        "layout": "NCHW", 
        "no_bias": "False", 
        "num_filter": "24", 
        "num_group": "1", 
        "pad": "(1, 1)", 
        "stride": "(1, 1)"
      }, 
      "inputs": [[242, 0, 0], [356, 0, 0], [357, 0, 0]]
    }, 
    {
      "op": "transpose", 
      "name": "ssd0_transpose8", 
      "attrs": {"axes": "(0, 2, 3, 1)"}, 
      "inputs": [[358, 0, 0]]
    }, 
    {
      "op": "Flatten", 
      "name": "ssd0_flatten8", 
      "inputs": [[359, 0, 0]]
    }, 
    {
      "op": "null", 
      "name": "ssd0_convpredictor7_conv0_weight", 
      "attrs": {
        "__dtype__": "0", 
        "__init__": "[\"xavier\", {\"rnd_type\": \"uniform\", \"factor_type\": \"avg\", \"magnitude\": 2}]", 
        "__lr_mult__": "1.0", 
        "__shape__": "(24, 0, 3, 3)", 
        "__storage_type__": "0", 
        "__wd_mult__": "1.0"
      }, 
      "inputs": []
    }, 
    {
      "op": "null", 
      "name": "ssd0_convpredictor7_conv0_bias", 
      "attrs": {
        "__dtype__": "0", 
        "__init__": "zeros", 
        "__lr_mult__": "1.0", 
        "__shape__": "(24,)", 
        "__storage_type__": "0", 
        "__wd_mult__": "1.0"
      }, 
      "inputs": []
    }, 
    {
      "op": "Convolution", 
      "name": "ssd0_convpredictor7_conv0_fwd", 
      "attrs": {
        "dilate": "(1, 1)", 
        "kernel": "(3, 3)", 
        "layout": "NCHW", 
        "no_bias": "False", 
        "num_filter": "24", 
        "num_group": "1", 
        "pad": "(1, 1)", 
        "stride": "(1, 1)"
      }, 
      "inputs": [[263, 0, 0], [361, 0, 0], [362, 0, 0]]
    }, 
    {
      "op": "transpose", 
      "name": "ssd0_transpose9", 
      "attrs": {"axes": "(0, 2, 3, 1)"}, 
      "inputs": [[363, 0, 0]]
    }, 
    {
      "op": "Flatten", 
      "name": "ssd0_flatten9", 
      "inputs": [[364, 0, 0]]
    }, 
    {
      "op": "null", 
      "name": "ssd0_convpredictor9_conv0_weight", 
      "attrs": {
        "__dtype__": "0", 
        "__init__": "[\"xavier\", {\"rnd_type\": \"uniform\", \"factor_type\": \"avg\", \"magnitude\": 2}]", 
        "__lr_mult__": "1.0", 
        "__shape__": "(16, 0, 3, 3)", 
        "__storage_type__": "0", 
        "__wd_mult__": "1.0"
      }, 
      "inputs": []
    }, 
    {
      "op": "null", 
      "name": "ssd0_convpredictor9_conv0_bias", 
      "attrs": {
        "__dtype__": "0", 
        "__init__": "zeros", 
        "__lr_mult__": "1.0", 
        "__shape__": "(16,)", 
        "__storage_type__": "0", 
        "__wd_mult__": "1.0"
      }, 
      "inputs": []
    }, 
    {
      "op": "Convolution", 
      "name": "ssd0_convpredictor9_conv0_fwd", 
      "attrs": {
        "dilate": "(1, 1)", 
        "kernel": "(3, 3)", 
        "layout": "NCHW", 
        "no_bias": "False", 
        "num_filter": "16", 
        "num_group": "1", 
        "pad": "(1, 1)", 
        "stride": "(1, 1)"
      }, 
      "inputs": [[284, 0, 0], [366, 0, 0], [367, 0, 0]]
    }, 
    {
      "op": "transpose", 
      "name": "ssd0_transpose10", 
      "attrs": {"axes": "(0, 2, 3, 1)"}, 
      "inputs": [[368, 0, 0]]
    }, 
    {
      "op": "Flatten", 
      "name": "ssd0_flatten10", 
      "inputs": [[369, 0, 0]]
    }, 
    {
      "op": "null", 
      "name": "ssd0_convpredictor11_conv0_weight", 
      "attrs": {
        "__dtype__": "0", 
        "__init__": "[\"xavier\", {\"rnd_type\": \"uniform\", \"factor_type\": \"avg\", \"magnitude\": 2}]", 
        "__lr_mult__": "1.0", 
        "__shape__": "(16, 0, 3, 3)", 
        "__storage_type__": "0", 
        "__wd_mult__": "1.0"
      }, 
      "inputs": []
    }, 
    {
      "op": "null", 
      "name": "ssd0_convpredictor11_conv0_bias", 
      "attrs": {
        "__dtype__": "0", 
        "__init__": "zeros", 
        "__lr_mult__": "1.0", 
        "__shape__": "(16,)", 
        "__storage_type__": "0", 
        "__wd_mult__": "1.0"
      }, 
      "inputs": []
    }, 
    {
      "op": "Convolution", 
      "name": "ssd0_convpredictor11_conv0_fwd", 
      "attrs": {
        "dilate": "(1, 1)", 
        "kernel": "(3, 3)", 
        "layout": "NCHW", 
        "no_bias": "False", 
        "num_filter": "16", 
        "num_group": "1", 
        "pad": "(1, 1)", 
        "stride": "(1, 1)"
      }, 
      "inputs": [[305, 0, 0], [371, 0, 0], [372, 0, 0]]
    }, 
    {
      "op": "transpose", 
      "name": "ssd0_transpose11", 
      "attrs": {"axes": "(0, 2, 3, 1)"}, 
      "inputs": [[373, 0, 0]]
    }, 
    {
      "op": "Flatten", 
      "name": "ssd0_flatten11", 
      "inputs": [[374, 0, 0]]
    }, 
    {
      "op": "Concat", 
      "name": "ssd0_concat1", 
      "attrs": {
        "dim": "1", 
        "num_args": "6"
      }, 
      "inputs": [[350, 0, 0], [355, 0, 0], [360, 0, 0], [365, 0, 0], [370, 0, 0], [375, 0, 0]]
    }, 
    {
      "op": "Reshape", 
      "name": "ssd0_reshape7", 
      "attrs": {"shape": "(0, -1, 4)"}, 
      "inputs": [[376, 0, 0]]
    }, 
    {
      "op": "SliceChannel", 
      "name": "ssd0_normalizedboxcenterdecoder0_split1", 
      "attrs": {
        "axis": "-1", 
        "num_outputs": "4"
      }, 
      "inputs": [[377, 0, 0]]
    }, 
    {
      "op": "_mul_scalar", 
      "name": "ssd0_normalizedboxcenterdecoder0__mulscalar0", 
      "attrs": {"scalar": "0.1"}, 
      "inputs": [[378, 0, 0]]
    }, 
    {
      "op": "_plus_scalar", 
      "name": "ssd0_normalizedboxcenterdecoder0__plusscalar0", 
      "attrs": {"scalar": "0.0"}, 
      "inputs": [[379, 0, 0]]
    }, 
    {
      "op": "null", 
      "name": "ssd0_ssdanchorgenerator0_anchor_0", 
      "attrs": {
        "__dtype__": "0", 
        "__init__": "Constant_ssd0_ssdanchorgenerator0_anchor_0_140675186338560", 
        "__lr_mult__": "1.0", 
        "__shape__": "(1, 1, 128, 128, 16)", 
        "__storage_type__": "0", 
        "__wd_mult__": "1.0"
      }, 
      "inputs": []
    }, 
    {
      "op": "_mul_scalar", 
      "name": "ssd0_ssdanchorgenerator0__mulscalar0", 
      "attrs": {"scalar": "0"}, 
      "inputs": [[184, 0, 0]]
    }, 
    {
      "op": "slice_like", 
      "name": "ssd0_ssdanchorgenerator0_slice_like0", 
      "attrs": {"axes": "(2, 3)"}, 
      "inputs": [[381, 0, 0], [382, 0, 0]]
    }, 
    {
      "op": "Reshape", 
      "name": "ssd0_ssdanchorgenerator0_reshape0", 
      "attrs": {"shape": "(1, -1, 4)"}, 
      "inputs": [[383, 0, 0]]
    }, 
    {
      "op": "Reshape", 
      "name": "ssd0_ssdanchorgenerator0_reshape1", 
      "attrs": {"shape": "(1, -1, 4)"}, 
      "inputs": [[384, 0, 0]]
    }, 
    {
      "op": "Reshape", 
      "name": "ssd0_reshape0", 
      "attrs": {"shape": "(1, -1)"}, 
      "inputs": [[385, 0, 0]]
    }, 
    {
      "op": "null", 
      "name": "ssd0_ssdanchorgenerator1_anchor_1", 
      "attrs": {
        "__dtype__": "0", 
        "__init__": "Constant_ssd0_ssdanchorgenerator1_anchor_1_140672194492792", 
        "__lr_mult__": "1.0", 
        "__shape__": "(1, 1, 64, 64, 24)", 
        "__storage_type__": "0", 
        "__wd_mult__": "1.0"
      }, 
      "inputs": []
    }, 
    {
      "op": "_mul_scalar", 
      "name": "ssd0_ssdanchorgenerator1__mulscalar0", 
      "attrs": {"scalar": "0"}, 
      "inputs": [[221, 0, 0]]
    }, 
    {
      "op": "slice_like", 
      "name": "ssd0_ssdanchorgenerator1_slice_like0", 
      "attrs": {"axes": "(2, 3)"}, 
      "inputs": [[387, 0, 0], [388, 0, 0]]
    }, 
    {
      "op": "Reshape", 
      "name": "ssd0_ssdanchorgenerator1_reshape0", 
      "attrs": {"shape": "(1, -1, 4)"}, 
      "inputs": [[389, 0, 0]]
    }, 
    {
      "op": "Reshape", 
      "name": "ssd0_ssdanchorgenerator1_reshape1", 
      "attrs": {"shape": "(1, -1, 4)"}, 
      "inputs": [[390, 0, 0]]
    }, 
    {
      "op": "Reshape", 
      "name": "ssd0_reshape1", 
      "attrs": {"shape": "(1, -1)"}, 
      "inputs": [[391, 0, 0]]
    }, 
    {
      "op": "null", 
      "name": "ssd0_ssdanchorgenerator2_anchor_2", 
      "attrs": {
        "__dtype__": "0", 
        "__init__": "Constant_ssd0_ssdanchorgenerator2_anchor_2_140672191914560", 
        "__lr_mult__": "1.0", 
        "__shape__": "(1, 1, 32, 32, 24)", 
        "__storage_type__": "0", 
        "__wd_mult__": "1.0"
      }, 
      "inputs": []
    }, 
    {
      "op": "_mul_scalar", 
      "name": "ssd0_ssdanchorgenerator2__mulscalar0", 
      "attrs": {"scalar": "0"}, 
      "inputs": [[242, 0, 0]]
    }, 
    {
      "op": "slice_like", 
      "name": "ssd0_ssdanchorgenerator2_slice_like0", 
      "attrs": {"axes": "(2, 3)"}, 
      "inputs": [[393, 0, 0], [394, 0, 0]]
    }, 
    {
      "op": "Reshape", 
      "name": "ssd0_ssdanchorgenerator2_reshape0", 
      "attrs": {"shape": "(1, -1, 4)"}, 
      "inputs": [[395, 0, 0]]
    }, 
    {
      "op": "Reshape", 
      "name": "ssd0_ssdanchorgenerator2_reshape1", 
      "attrs": {"shape": "(1, -1, 4)"}, 
      "inputs": [[396, 0, 0]]
    }, 
    {
      "op": "Reshape", 
      "name": "ssd0_reshape2", 
      "attrs": {"shape": "(1, -1)"}, 
      "inputs": [[397, 0, 0]]
    }, 
    {
      "op": "null", 
      "name": "ssd0_ssdanchorgenerator3_anchor_3", 
      "attrs": {
        "__dtype__": "0", 
        "__init__": "Constant_ssd0_ssdanchorgenerator3_anchor_3_140672191916296", 
        "__lr_mult__": "1.0", 
        "__shape__": "(1, 1, 16, 16, 24)", 
        "__storage_type__": "0", 
        "__wd_mult__": "1.0"
      }, 
      "inputs": []
    }, 
    {
      "op": "_mul_scalar", 
      "name": "ssd0_ssdanchorgenerator3__mulscalar0", 
      "attrs": {"scalar": "0"}, 
      "inputs": [[263, 0, 0]]
    }, 
    {
      "op": "slice_like", 
      "name": "ssd0_ssdanchorgenerator3_slice_like0", 
      "attrs": {"axes": "(2, 3)"}, 
      "inputs": [[399, 0, 0], [400, 0, 0]]
    }, 
    {
      "op": "Reshape", 
      "name": "ssd0_ssdanchorgenerator3_reshape0", 
      "attrs": {"shape": "(1, -1, 4)"}, 
      "inputs": [[401, 0, 0]]
    }, 
    {
      "op": "Reshape", 
      "name": "ssd0_ssdanchorgenerator3_reshape1", 
      "attrs": {"shape": "(1, -1, 4)"}, 
      "inputs": [[402, 0, 0]]
    }, 
    {
      "op": "Reshape", 
      "name": "ssd0_reshape3", 
      "attrs": {"shape": "(1, -1)"}, 
      "inputs": [[403, 0, 0]]
    }, 
    {
      "op": "null", 
      "name": "ssd0_ssdanchorgenerator4_anchor_4", 
      "attrs": {
        "__dtype__": "0", 
        "__init__": "Constant_ssd0_ssdanchorgenerator4_anchor_4_140672191882296", 
        "__lr_mult__": "1.0", 
        "__shape__": "(1, 1, 16, 16, 16)", 
        "__storage_type__": "0", 
        "__wd_mult__": "1.0"
      }, 
      "inputs": []
    }, 
    {
      "op": "_mul_scalar", 
      "name": "ssd0_ssdanchorgenerator4__mulscalar0", 
      "attrs": {"scalar": "0"}, 
      "inputs": [[284, 0, 0]]
    }, 
    {
      "op": "slice_like", 
      "name": "ssd0_ssdanchorgenerator4_slice_like0", 
      "attrs": {"axes": "(2, 3)"}, 
      "inputs": [[405, 0, 0], [406, 0, 0]]
    }, 
    {
      "op": "Reshape", 
      "name": "ssd0_ssdanchorgenerator4_reshape0", 
      "attrs": {"shape": "(1, -1, 4)"}, 
      "inputs": [[407, 0, 0]]
    }, 
    {
      "op": "Reshape", 
      "name": "ssd0_ssdanchorgenerator4_reshape1", 
      "attrs": {"shape": "(1, -1, 4)"}, 
      "inputs": [[408, 0, 0]]
    }, 
    {
      "op": "Reshape", 
      "name": "ssd0_reshape4", 
      "attrs": {"shape": "(1, -1)"}, 
      "inputs": [[409, 0, 0]]
    }, 
    {
      "op": "null", 
      "name": "ssd0_ssdanchorgenerator5_anchor_5", 
      "attrs": {
        "__dtype__": "0", 
        "__init__": "Constant_ssd0_ssdanchorgenerator5_anchor_5_140672191883360", 
        "__lr_mult__": "1.0", 
        "__shape__": "(1, 1, 16, 16, 16)", 
        "__storage_type__": "0", 
        "__wd_mult__": "1.0"
      }, 
      "inputs": []
    }, 
    {
      "op": "_mul_scalar", 
      "name": "ssd0_ssdanchorgenerator5__mulscalar0", 
      "attrs": {"scalar": "0"}, 
      "inputs": [[305, 0, 0]]
    }, 
    {
      "op": "slice_like", 
      "name": "ssd0_ssdanchorgenerator5_slice_like0", 
      "attrs": {"axes": "(2, 3)"}, 
      "inputs": [[411, 0, 0], [412, 0, 0]]
    }, 
    {
      "op": "Reshape", 
      "name": "ssd0_ssdanchorgenerator5_reshape0", 
      "attrs": {"shape": "(1, -1, 4)"}, 
      "inputs": [[413, 0, 0]]
    }, 
    {
      "op": "Reshape", 
      "name": "ssd0_ssdanchorgenerator5_reshape1", 
      "attrs": {"shape": "(1, -1, 4)"}, 
      "inputs": [[414, 0, 0]]
    }, 
    {
      "op": "Reshape", 
      "name": "ssd0_reshape5", 
      "attrs": {"shape": "(1, -1)"}, 
      "inputs": [[415, 0, 0]]
    }, 
    {
      "op": "Concat", 
      "name": "ssd0_concat2", 
      "attrs": {
        "dim": "1", 
        "num_args": "6"
      }, 
      "inputs": [[386, 0, 0], [392, 0, 0], [398, 0, 0], [404, 0, 0], [410, 0, 0], [416, 0, 0]]
    }, 
    {
      "op": "Reshape", 
      "name": "ssd0_reshape8", 
      "attrs": {"shape": "(1, -1, 4)"}, 
      "inputs": [[417, 0, 0]]
    }, 
    {
      "op": "SliceChannel", 
      "name": "ssd0_normalizedboxcenterdecoder0_split0", 
      "attrs": {
        "axis": "-1", 
        "num_outputs": "4"
      }, 
      "inputs": [[418, 0, 0]]
    }, 
    {
      "op": "broadcast_mul", 
      "name": "ssd0_normalizedboxcenterdecoder0_broadcast_mul0", 
      "inputs": [[380, 0, 0], [419, 2, 0]]
    }, 
    {
      "op": "broadcast_add", 
      "name": "ssd0_normalizedboxcenterdecoder0_broadcast_add0", 
      "inputs": [[420, 0, 0], [419, 0, 0]]
    }, 
    {
      "op": "_mul_scalar", 
      "name": "ssd0_normalizedboxcenterdecoder0__mulscalar2", 
      "attrs": {"scalar": "0.2"}, 
      "inputs": [[378, 2, 0]]
    }, 
    {
      "op": "_plus_scalar", 
      "name": "ssd0_normalizedboxcenterdecoder0__plusscalar2", 
      "attrs": {"scalar": "0.0"}, 
      "inputs": [[422, 0, 0]]
    }, 
    {
      "op": "exp", 
      "name": "ssd0_normalizedboxcenterdecoder0_exp0", 
      "inputs": [[423, 0, 0]]
    }, 
    {
      "op": "broadcast_mul", 
      "name": "ssd0_normalizedboxcenterdecoder0_broadcast_mul2", 
      "inputs": [[424, 0, 0], [419, 2, 0]]
    }, 
    {
      "op": "_div_scalar", 
      "name": "ssd0_normalizedboxcenterdecoder0__divscalar0", 
      "attrs": {"scalar": "2"}, 
      "inputs": [[425, 0, 0]]
    }, 
    {
      "op": "elemwise_sub", 
      "name": "ssd0_normalizedboxcenterdecoder0__minus0", 
      "inputs": [[421, 0, 0], [426, 0, 0]]
    }, 
    {
      "op": "_mul_scalar", 
      "name": "ssd0_normalizedboxcenterdecoder0__mulscalar1", 
      "attrs": {"scalar": "0.1"}, 
      "inputs": [[378, 1, 0]]
    }, 
    {
      "op": "_plus_scalar", 
      "name": "ssd0_normalizedboxcenterdecoder0__plusscalar1", 
      "attrs": {"scalar": "0.0"}, 
      "inputs": [[428, 0, 0]]
    }, 
    {
      "op": "broadcast_mul", 
      "name": "ssd0_normalizedboxcenterdecoder0_broadcast_mul1", 
      "inputs": [[429, 0, 0], [419, 3, 0]]
    }, 
    {
      "op": "broadcast_add", 
      "name": "ssd0_normalizedboxcenterdecoder0_broadcast_add1", 
      "inputs": [[430, 0, 0], [419, 1, 0]]
    }, 
    {
      "op": "_mul_scalar", 
      "name": "ssd0_normalizedboxcenterdecoder0__mulscalar3", 
      "attrs": {"scalar": "0.2"}, 
      "inputs": [[378, 3, 0]]
    }, 
    {
      "op": "_plus_scalar", 
      "name": "ssd0_normalizedboxcenterdecoder0__plusscalar3", 
      "attrs": {"scalar": "0.0"}, 
      "inputs": [[432, 0, 0]]
    }, 
    {
      "op": "exp", 
      "name": "ssd0_normalizedboxcenterdecoder0_exp1", 
      "inputs": [[433, 0, 0]]
    }, 
    {
      "op": "broadcast_mul", 
      "name": "ssd0_normalizedboxcenterdecoder0_broadcast_mul3", 
      "inputs": [[434, 0, 0], [419, 3, 0]]
    }, 
    {
      "op": "_div_scalar", 
      "name": "ssd0_normalizedboxcenterdecoder0__divscalar1", 
      "attrs": {"scalar": "2"}, 
      "inputs": [[435, 0, 0]]
    }, 
    {
      "op": "elemwise_sub", 
      "name": "ssd0_normalizedboxcenterdecoder0__minus1", 
      "inputs": [[431, 0, 0], [436, 0, 0]]
    }, 
    {
      "op": "elemwise_add", 
      "name": "ssd0_normalizedboxcenterdecoder0__plus0", 
      "inputs": [[421, 0, 0], [426, 0, 0]]
    }, 
    {
      "op": "elemwise_add", 
      "name": "ssd0_normalizedboxcenterdecoder0__plus1", 
      "inputs": [[431, 0, 0], [436, 0, 0]]
    }, 
    {
      "op": "Concat", 
      "name": "ssd0_normalizedboxcenterdecoder0_concat0", 
      "attrs": {
        "dim": "-1", 
        "num_args": "4"
      }, 
      "inputs": [[427, 0, 0], [437, 0, 0], [438, 0, 0], [439, 0, 0]]
    }, 
    {
      "op": "Concat", 
      "name": "ssd0_concat3", 
      "attrs": {
        "dim": "-1", 
        "num_args": "3"
      }, 
      "inputs": [[342, 0, 0], [345, 0, 0], [440, 0, 0]]
    }, 
    {
      "op": "slice_axis", 
      "name": "ssd0_slice_axis2", 
      "attrs": {
        "axis": "-1", 
        "begin": "1", 
        "end": "2"
      }, 
      "inputs": [[341, 0, 0]]
    }, 
    {
      "op": "slice_axis", 
      "name": "ssd0_slice_axis3", 
      "attrs": {
        "axis": "-1", 
        "begin": "1", 
        "end": "2"
      }, 
      "inputs": [[344, 0, 0]]
    }, 
    {
      "op": "Concat", 
      "name": "ssd0_concat4", 
      "attrs": {
        "dim": "-1", 
        "num_args": "3"
      }, 
      "inputs": [[442, 0, 0], [443, 0, 0], [440, 0, 0]]
    }, 
    {
      "op": "slice_axis", 
      "name": "ssd0_slice_axis4", 
      "attrs": {
        "axis": "-1", 
        "begin": "2", 
        "end": "3"
      }, 
      "inputs": [[341, 0, 0]]
    }, 
    {
      "op": "slice_axis", 
      "name": "ssd0_slice_axis5", 
      "attrs": {
        "axis": "-1", 
        "begin": "2", 
        "end": "3"
      }, 
      "inputs": [[344, 0, 0]]
    }, 
    {
      "op": "Concat", 
      "name": "ssd0_concat5", 
      "attrs": {
        "dim": "-1", 
        "num_args": "3"
      }, 
      "inputs": [[445, 0, 0], [446, 0, 0], [440, 0, 0]]
    }, 
    {
      "op": "slice_axis", 
      "name": "ssd0_slice_axis6", 
      "attrs": {
        "axis": "-1", 
        "begin": "3", 
        "end": "4"
      }, 
      "inputs": [[341, 0, 0]]
    }, 
    {
      "op": "slice_axis", 
      "name": "ssd0_slice_axis7", 
      "attrs": {
        "axis": "-1", 
        "begin": "3", 
        "end": "4"
      }, 
      "inputs": [[344, 0, 0]]
    }, 
    {
      "op": "Concat", 
      "name": "ssd0_concat6", 
      "attrs": {
        "dim": "-1", 
        "num_args": "3"
      }, 
      "inputs": [[448, 0, 0], [449, 0, 0], [440, 0, 0]]
    }, 
    {
      "op": "slice_axis", 
      "name": "ssd0_slice_axis8", 
      "attrs": {
        "axis": "-1", 
        "begin": "4", 
        "end": "5"
      }, 
      "inputs": [[341, 0, 0]]
    }, 
    {
      "op": "slice_axis", 
      "name": "ssd0_slice_axis9", 
      "attrs": {
        "axis": "-1", 
        "begin": "4", 
        "end": "5"
      }, 
      "inputs": [[344, 0, 0]]
    }, 
    {
      "op": "Concat", 
      "name": "ssd0_concat7", 
      "attrs": {
        "dim": "-1", 
        "num_args": "3"
      }, 
      "inputs": [[451, 0, 0], [452, 0, 0], [440, 0, 0]]
    }, 
    {
      "op": "slice_axis", 
      "name": "ssd0_slice_axis10", 
      "attrs": {
        "axis": "-1", 
        "begin": "5", 
        "end": "6"
      }, 
      "inputs": [[341, 0, 0]]
    }, 
    {
      "op": "slice_axis", 
      "name": "ssd0_slice_axis11", 
      "attrs": {
        "axis": "-1", 
        "begin": "5", 
        "end": "6"
      }, 
      "inputs": [[344, 0, 0]]
    }, 
    {
      "op": "Concat", 
      "name": "ssd0_concat8", 
      "attrs": {
        "dim": "-1", 
        "num_args": "3"
      }, 
      "inputs": [[454, 0, 0], [455, 0, 0], [440, 0, 0]]
    }, 
    {
      "op": "slice_axis", 
      "name": "ssd0_slice_axis12", 
      "attrs": {
        "axis": "-1", 
        "begin": "6", 
        "end": "7"
      }, 
      "inputs": [[341, 0, 0]]
    }, 
    {
      "op": "slice_axis", 
      "name": "ssd0_slice_axis13", 
      "attrs": {
        "axis": "-1", 
        "begin": "6", 
        "end": "7"
      }, 
      "inputs": [[344, 0, 0]]
    }, 
    {
      "op": "Concat", 
      "name": "ssd0_concat9", 
      "attrs": {
        "dim": "-1", 
        "num_args": "3"
      }, 
      "inputs": [[457, 0, 0], [458, 0, 0], [440, 0, 0]]
    }, 
    {
      "op": "slice_axis", 
      "name": "ssd0_slice_axis14", 
      "attrs": {
        "axis": "-1", 
        "begin": "7", 
        "end": "8"
      }, 
      "inputs": [[341, 0, 0]]
    }, 
    {
      "op": "slice_axis", 
      "name": "ssd0_slice_axis15", 
      "attrs": {
        "axis": "-1", 
        "begin": "7", 
        "end": "8"
      }, 
      "inputs": [[344, 0, 0]]
    }, 
    {
      "op": "Concat", 
      "name": "ssd0_concat10", 
      "attrs": {
        "dim": "-1", 
        "num_args": "3"
      }, 
      "inputs": [[460, 0, 0], [461, 0, 0], [440, 0, 0]]
    }, 
    {
      "op": "slice_axis", 
      "name": "ssd0_slice_axis16", 
      "attrs": {
        "axis": "-1", 
        "begin": "8", 
        "end": "9"
      }, 
      "inputs": [[341, 0, 0]]
    }, 
    {
      "op": "slice_axis", 
      "name": "ssd0_slice_axis17", 
      "attrs": {
        "axis": "-1", 
        "begin": "8", 
        "end": "9"
      }, 
      "inputs": [[344, 0, 0]]
    }, 
    {
      "op": "Concat", 
      "name": "ssd0_concat11", 
      "attrs": {
        "dim": "-1", 
        "num_args": "3"
      }, 
      "inputs": [[463, 0, 0], [464, 0, 0], [440, 0, 0]]
    }, 
    {
      "op": "slice_axis", 
      "name": "ssd0_slice_axis18", 
      "attrs": {
        "axis": "-1", 
        "begin": "9", 
        "end": "10"
      }, 
      "inputs": [[341, 0, 0]]
    }, 
    {
      "op": "slice_axis", 
      "name": "ssd0_slice_axis19", 
      "attrs": {
        "axis": "-1", 
        "begin": "9", 
        "end": "10"
      }, 
      "inputs": [[344, 0, 0]]
    }, 
    {
      "op": "Concat", 
      "name": "ssd0_concat12", 
      "attrs": {
        "dim": "-1", 
        "num_args": "3"
      }, 
      "inputs": [[466, 0, 0], [467, 0, 0], [440, 0, 0]]
    }, 
    {
      "op": "slice_axis", 
      "name": "ssd0_slice_axis20", 
      "attrs": {
        "axis": "-1", 
        "begin": "10", 
        "end": "11"
      }, 
      "inputs": [[341, 0, 0]]
    }, 
    {
      "op": "slice_axis", 
      "name": "ssd0_slice_axis21", 
      "attrs": {
        "axis": "-1", 
        "begin": "10", 
        "end": "11"
      }, 
      "inputs": [[344, 0, 0]]
    }, 
    {
      "op": "Concat", 
      "name": "ssd0_concat13", 
      "attrs": {
        "dim": "-1", 
        "num_args": "3"
      }, 
      "inputs": [[469, 0, 0], [470, 0, 0], [440, 0, 0]]
    }, 
    {
      "op": "slice_axis", 
      "name": "ssd0_slice_axis22", 
      "attrs": {
        "axis": "-1", 
        "begin": "11", 
        "end": "12"
      }, 
      "inputs": [[341, 0, 0]]
    }, 
    {
      "op": "slice_axis", 
      "name": "ssd0_slice_axis23", 
      "attrs": {
        "axis": "-1", 
        "begin": "11", 
        "end": "12"
      }, 
      "inputs": [[344, 0, 0]]
    }, 
    {
      "op": "Concat", 
      "name": "ssd0_concat14", 
      "attrs": {
        "dim": "-1", 
        "num_args": "3"
      }, 
      "inputs": [[472, 0, 0], [473, 0, 0], [440, 0, 0]]
    }, 
    {
      "op": "slice_axis", 
      "name": "ssd0_slice_axis24", 
      "attrs": {
        "axis": "-1", 
        "begin": "12", 
        "end": "13"
      }, 
      "inputs": [[341, 0, 0]]
    }, 
    {
      "op": "slice_axis", 
      "name": "ssd0_slice_axis25", 
      "attrs": {
        "axis": "-1", 
        "begin": "12", 
        "end": "13"
      }, 
      "inputs": [[344, 0, 0]]
    }, 
    {
      "op": "Concat", 
      "name": "ssd0_concat15", 
      "attrs": {
        "dim": "-1", 
        "num_args": "3"
      }, 
      "inputs": [[475, 0, 0], [476, 0, 0], [440, 0, 0]]
    }, 
    {
      "op": "slice_axis", 
      "name": "ssd0_slice_axis26", 
      "attrs": {
        "axis": "-1", 
        "begin": "13", 
        "end": "14"
      }, 
      "inputs": [[341, 0, 0]]
    }, 
    {
      "op": "slice_axis", 
      "name": "ssd0_slice_axis27", 
      "attrs": {
        "axis": "-1", 
        "begin": "13", 
        "end": "14"
      }, 
      "inputs": [[344, 0, 0]]
    }, 
    {
      "op": "Concat", 
      "name": "ssd0_concat16", 
      "attrs": {
        "dim": "-1", 
        "num_args": "3"
      }, 
      "inputs": [[478, 0, 0], [479, 0, 0], [440, 0, 0]]
    }, 
    {
      "op": "slice_axis", 
      "name": "ssd0_slice_axis28", 
      "attrs": {
        "axis": "-1", 
        "begin": "14", 
        "end": "15"
      }, 
      "inputs": [[341, 0, 0]]
    }, 
    {
      "op": "slice_axis", 
      "name": "ssd0_slice_axis29", 
      "attrs": {
        "axis": "-1", 
        "begin": "14", 
        "end": "15"
      }, 
      "inputs": [[344, 0, 0]]
    }, 
    {
      "op": "Concat", 
      "name": "ssd0_concat17", 
      "attrs": {
        "dim": "-1", 
        "num_args": "3"
      }, 
      "inputs": [[481, 0, 0], [482, 0, 0], [440, 0, 0]]
    }, 
    {
      "op": "slice_axis", 
      "name": "ssd0_slice_axis30", 
      "attrs": {
        "axis": "-1", 
        "begin": "15", 
        "end": "16"
      }, 
      "inputs": [[341, 0, 0]]
    }, 
    {
      "op": "slice_axis", 
      "name": "ssd0_slice_axis31", 
      "attrs": {
        "axis": "-1", 
        "begin": "15", 
        "end": "16"
      }, 
      "inputs": [[344, 0, 0]]
    }, 
    {
      "op": "Concat", 
      "name": "ssd0_concat18", 
      "attrs": {
        "dim": "-1", 
        "num_args": "3"
      }, 
      "inputs": [[484, 0, 0], [485, 0, 0], [440, 0, 0]]
    }, 
    {
      "op": "slice_axis", 
      "name": "ssd0_slice_axis32", 
      "attrs": {
        "axis": "-1", 
        "begin": "16", 
        "end": "17"
      }, 
      "inputs": [[341, 0, 0]]
    }, 
    {
      "op": "slice_axis", 
      "name": "ssd0_slice_axis33", 
      "attrs": {
        "axis": "-1", 
        "begin": "16", 
        "end": "17"
      }, 
      "inputs": [[344, 0, 0]]
    }, 
    {
      "op": "Concat", 
      "name": "ssd0_concat19", 
      "attrs": {
        "dim": "-1", 
        "num_args": "3"
      }, 
      "inputs": [[487, 0, 0], [488, 0, 0], [440, 0, 0]]
    }, 
    {
      "op": "slice_axis", 
      "name": "ssd0_slice_axis34", 
      "attrs": {
        "axis": "-1", 
        "begin": "17", 
        "end": "18"
      }, 
      "inputs": [[341, 0, 0]]
    }, 
    {
      "op": "slice_axis", 
      "name": "ssd0_slice_axis35", 
      "attrs": {
        "axis": "-1", 
        "begin": "17", 
        "end": "18"
      }, 
      "inputs": [[344, 0, 0]]
    }, 
    {
      "op": "Concat", 
      "name": "ssd0_concat20", 
      "attrs": {
        "dim": "-1", 
        "num_args": "3"
      }, 
      "inputs": [[490, 0, 0], [491, 0, 0], [440, 0, 0]]
    }, 
    {
      "op": "slice_axis", 
      "name": "ssd0_slice_axis36", 
      "attrs": {
        "axis": "-1", 
        "begin": "18", 
        "end": "19"
      }, 
      "inputs": [[341, 0, 0]]
    }, 
    {
      "op": "slice_axis", 
      "name": "ssd0_slice_axis37", 
      "attrs": {
        "axis": "-1", 
        "begin": "18", 
        "end": "19"
      }, 
      "inputs": [[344, 0, 0]]
    }, 
    {
      "op": "Concat", 
      "name": "ssd0_concat21", 
      "attrs": {
        "dim": "-1", 
        "num_args": "3"
      }, 
      "inputs": [[493, 0, 0], [494, 0, 0], [440, 0, 0]]
    }, 
    {
      "op": "slice_axis", 
      "name": "ssd0_slice_axis38", 
      "attrs": {
        "axis": "-1", 
        "begin": "19", 
        "end": "20"
      }, 
      "inputs": [[341, 0, 0]]
    }, 
    {
      "op": "slice_axis", 
      "name": "ssd0_slice_axis39", 
      "attrs": {
        "axis": "-1", 
        "begin": "19", 
        "end": "20"
      }, 
      "inputs": [[344, 0, 0]]
    }, 
    {
      "op": "Concat", 
      "name": "ssd0_concat22", 
      "attrs": {
        "dim": "-1", 
        "num_args": "3"
      }, 
      "inputs": [[496, 0, 0], [497, 0, 0], [440, 0, 0]]
    }, 
    {
      "op": "Concat", 
      "name": "ssd0_concat23", 
      "attrs": {
        "dim": "1", 
        "num_args": "20"
      }, 
      "inputs": [
        [441, 0, 0], 
        [444, 0, 0], 
        [447, 0, 0], 
        [450, 0, 0], 
        [453, 0, 0], 
        [456, 0, 0], 
        [459, 0, 0], 
        [462, 0, 0], 
        [465, 0, 0], 
        [468, 0, 0], 
        [471, 0, 0], 
        [474, 0, 0], 
        [477, 0, 0], 
        [480, 0, 0], 
        [483, 0, 0], 
        [486, 0, 0], 
        [489, 0, 0], 
        [492, 0, 0], 
        [495, 0, 0], 
        [498, 0, 0]
      ]
    }, 
    {
      "op": "_contrib_box_nms", 
      "name": "ssd0_box_nms0", 
      "attrs": {
        "coord_start": "2", 
        "force_suppress": "False", 
        "id_index": "0", 
        "overlap_thresh": "0.45", 
        "score_index": "1", 
        "topk": "400", 
        "valid_thresh": "0.01"
      }, 
      "inputs": [[499, 0, 0]]
    }, 
    {
      "op": "slice_axis", 
      "name": "ssd0_slice_axis40", 
      "attrs": {
        "axis": "1", 
        "begin": "0", 
        "end": "100"
      }, 
      "inputs": [[500, 0, 0]]
    }, 
    {
      "op": "slice_axis", 
      "name": "ssd0_slice_axis41", 
      "attrs": {
        "axis": "2", 
        "begin": "0", 
        "end": "1"
      }, 
      "inputs": [[501, 0, 0]]
    }, 
    {
      "op": "slice_axis", 
      "name": "ssd0_slice_axis42", 
      "attrs": {
        "axis": "2", 
        "begin": "1", 
        "end": "2"
      }, 
      "inputs": [[501, 0, 0]]
    }, 
    {
      "op": "slice_axis", 
      "name": "ssd0_slice_axis43", 
      "attrs": {
        "axis": "2", 
        "begin": "2", 
        "end": "6"
      }, 
      "inputs": [[501, 0, 0]]
    }
  ], 
  "arg_nodes": [
    0, 
    1, 
    3, 
    4, 
    5, 
    6, 
    9, 
    11, 
    12, 
    13, 
    14, 
    17, 
    19, 
    20, 
    21, 
    22, 
    25, 
    27, 
    28, 
    29, 
    30, 
    33, 
    35, 
    36, 
    37, 
    38, 
    41, 
    43, 
    44, 
    45, 
    46, 
    49, 
    51, 
    52, 
    53, 
    54, 
    57, 
    59, 
    60, 
    61, 
    62, 
    65, 
    67, 
    68, 
    69, 
    70, 
    73, 
    75, 
    76, 
    77, 
    78, 
    81, 
    83, 
    84, 
    85, 
    86, 
    89, 
    91, 
    92, 
    93, 
    94, 
    97, 
    99, 
    100, 
    101, 
    102, 
    105, 
    107, 
    108, 
    109, 
    110, 
    113, 
    115, 
    116, 
    117, 
    118, 
    121, 
    123, 
    124, 
    125, 
    126, 
    129, 
    131, 
    132, 
    133, 
    134, 
    137, 
    139, 
    140, 
    141, 
    142, 
    145, 
    147, 
    148, 
    149, 
    150, 
    153, 
    155, 
    156, 
    157, 
    158, 
    161, 
    163, 
    164, 
    165, 
    166, 
    169, 
    171, 
    172, 
    173, 
    174, 
    177, 
    179, 
    180, 
    181, 
    182, 
    185, 
    186, 
    190, 
    192, 
    193, 
    194, 
    195, 
    198, 
    200, 
    201, 
    202, 
    203, 
    206, 
    208, 
    209, 
    210, 
    211, 
    214, 
    216, 
    217, 
    218, 
    219, 
    222, 
    223, 
    227, 
    229, 
    230, 
    231, 
    232, 
    235, 
    237, 
    238, 
    239, 
    240, 
    243, 
    244, 
    248, 
    250, 
    251, 
    252, 
    253, 
    256, 
    258, 
    259, 
    260, 
    261, 
    264, 
    265, 
    269, 
    271, 
    272, 
    273, 
    274, 
    277, 
    279, 
    280, 
    281, 
    282, 
    285, 
    286, 
    290, 
    292, 
    293, 
    294, 
    295, 
    298, 
    300, 
    301, 
    302, 
    303, 
    306, 
    307, 
    346, 
    347, 
    351, 
    352, 
    356, 
    357, 
    361, 
    362, 
    366, 
    367, 
    371, 
    372, 
    381, 
    387, 
    393, 
    399, 
    405, 
    411
  ], 
  "node_row_ptr": [
    0, 
    1, 
    2, 
    3, 
    4, 
    5, 
    6, 
    7, 
    10, 
    11, 
    12, 
    13, 
    14, 
    15, 
    16, 
    17, 
    20, 
    21, 
    22, 
    23, 
    24, 
    25, 
    26, 
    27, 
    30, 
    31, 
    32, 
    33, 
    34, 
    35, 
    36, 
    37, 
    40, 
    41, 
    42, 
    43, 
    44, 
    45, 
    46, 
    47, 
    50, 
    51, 
    52, 
    53, 
    54, 
    55, 
    56, 
    57, 
    60, 
    61, 
    62, 
    63, 
    64, 
    65, 
    66, 
    67, 
    70, 
    71, 
    72, 
    73, 
    74, 
    75, 
    76, 
    77, 
    80, 
    81, 
    82, 
    83, 
    84, 
    85, 
    86, 
    87, 
    90, 
    91, 
    92, 
    93, 
    94, 
    95, 
    96, 
    97, 
    100, 
    101, 
    102, 
    103, 
    104, 
    105, 
    106, 
    107, 
    110, 
    111, 
    112, 
    113, 
    114, 
    115, 
    116, 
    117, 
    120, 
    121, 
    122, 
    123, 
    124, 
    125, 
    126, 
    127, 
    130, 
    131, 
    132, 
    133, 
    134, 
    135, 
    136, 
    137, 
    140, 
    141, 
    142, 
    143, 
    144, 
    145, 
    146, 
    147, 
    150, 
    151, 
    152, 
    153, 
    154, 
    155, 
    156, 
    157, 
    160, 
    161, 
    162, 
    163, 
    164, 
    165, 
    166, 
    167, 
    170, 
    171, 
    172, 
    173, 
    174, 
    175, 
    176, 
    177, 
    180, 
    181, 
    182, 
    183, 
    184, 
    185, 
    186, 
    187, 
    190, 
    191, 
    192, 
    193, 
    194, 
    195, 
    196, 
    197, 
    200, 
    201, 
    202, 
    203, 
    204, 
    205, 
    206, 
    207, 
    210, 
    211, 
    212, 
    213, 
    214, 
    215, 
    216, 
    217, 
    220, 
    221, 
    222, 
    223, 
    224, 
    225, 
    226, 
    227, 
    230, 
    231, 
    232, 
    233, 
    234, 
    235, 
    236, 
    237, 
    238, 
    239, 
    240, 
    241, 
    242, 
    245, 
    246, 
    247, 
    248, 
    249, 
    250, 
    251, 
    252, 
    255, 
    256, 
    257, 
    258, 
    259, 
    260, 
    261, 
    262, 
    265, 
    266, 
    267, 
    268, 
    269, 
    270, 
    271, 
    272, 
    275, 
    276, 
    277, 
    278, 
    279, 
    280, 
    281, 
    282, 
    283, 
    284, 
    285, 
    286, 
    287, 
    290, 
    291, 
    292, 
    293, 
    294, 
    295, 
    296, 
    297, 
    300, 
    301, 
    302, 
    303, 
    304, 
    305, 
    306, 
    307, 
    308, 
    309, 
    310, 
    311, 
    312, 
    315, 
    316, 
    317, 
    318, 
    319, 
    320, 
    321, 
    322, 
    325, 
    326, 
    327, 
    328, 
    329, 
    330, 
    331, 
    332, 
    333, 
    334, 
    335, 
    336, 
    337, 
    340, 
    341, 
    342, 
    343, 
    344, 
    345, 
    346, 
    347, 
    350, 
    351, 
    352, 
    353, 
    354, 
    355, 
    356, 
    357, 
    358, 
    359, 
    360, 
    361, 
    362, 
    365, 
    366, 
    367, 
    368, 
    369, 
    370, 
    371, 
    372, 
    375, 
    376, 
    377, 
    378, 
    379, 
    380, 
    381, 
    382, 
    383, 
    384, 
    385, 
    386, 
    387, 
    388, 
    389, 
    390, 
    391, 
    392, 
    393, 
    394, 
    395, 
    396, 
    397, 
    398, 
    399, 
    400, 
    401, 
    402, 
    403, 
    404, 
    405, 
    406, 
    407, 
    408, 
    409, 
    410, 
    411, 
    412, 
    413, 
    414, 
    415, 
    416, 
    417, 
    418, 
    419, 
    420, 
    421, 
    422, 
    423, 
    424, 
    425, 
    426, 
    427, 
    428, 
    429, 
    430, 
    431, 
    432, 
    433, 
    434, 
    435, 
    436, 
    437, 
    438, 
    439, 
    440, 
    441, 
    442, 
    443, 
    444, 
    445, 
    446, 
    447, 
    448, 
    452, 
    453, 
    454, 
    455, 
    456, 
    457, 
    458, 
    459, 
    460, 
    461, 
    462, 
    463, 
    464, 
    465, 
    466, 
    467, 
    468, 
    469, 
    470, 
    471, 
    472, 
    473, 
    474, 
    475, 
    476, 
    477, 
    478, 
    479, 
    480, 
    481, 
    482, 
    483, 
    484, 
    485, 
    486, 
    487, 
    488, 
    489, 
    490, 
    491, 
    492, 
    496, 
    497, 
    498, 
    499, 
    500, 
    501, 
    502, 
    503, 
    504, 
    505, 
    506, 
    507, 
    508, 
    509, 
    510, 
    511, 
    512, 
    513, 
    514, 
    515, 
    516, 
    517, 
    518, 
    519, 
    520, 
    521, 
    522, 
    523, 
    524, 
    525, 
    526, 
    527, 
    528, 
    529, 
    530, 
    531, 
    532, 
    533, 
    534, 
    535, 
    536, 
    537, 
    538, 
    539, 
    540, 
    541, 
    542, 
    543, 
    544, 
    545, 
    546, 
    547, 
    548, 
    549, 
    550, 
    551, 
    552, 
    553, 
    554, 
    555, 
    556, 
    557, 
    558, 
    559, 
    560, 
    561, 
    562, 
    563, 
    564, 
    565, 
    566, 
    567, 
    568, 
    569, 
    570, 
    571, 
    572, 
    573, 
    574, 
    575, 
    576, 
    578, 
    579, 
    580, 
    581, 
    582
  ], 
  "heads": [[502, 0, 0], [503, 0, 0], [504, 0, 0]], 
  "attrs": {"mxnet_version": ["int", 10500]}
}